{"format": "graph-model", "generatedBy": "2.7.0", "convertedBy": "TensorFlow.js Converter v3.15.0", "signature": {"inputs": {"input_text": {"name": "input_text:0", "dtype": "DT_STRING", "tensorShape": {"dim": [{"size": "-1"}]}}}, "outputs": {"text": {"name": "Identity_1:0", "dtype": "DT_STRING", "tensorShape": {"dim": [{"size": "-1"}]}}, "attention": {"name": "Identity:0", "dtype": "DT_FLOAT", "tensorShape": {"dim": [{"size": "-1"}, {"size": "50"}, {"size": "-1"}]}}}}, "modelTopology": {"node": [{"name": "StatefulPartitionedCall/concat_1/axis", "op": "Const", "attr": {"dtype": {"type": "DT_INT32"}, "value": {"tensor": {"dtype": "DT_INT32", "tensorShape": {}}}}}, {"name": "unknown_19", "op": "Const", "attr": {"value": {"tensor": {"dtype": "DT_INT64", "tensorShape": {}}}, "dtype": {"type": "DT_INT64"}}}, {"name": "unknown_20", "op": "Const", "attr": {"dtype": {"type": "DT_STRING"}, "value": {"tensor": {"dtype": "DT_STRING", "tensorShape": {}}}}}, {"name": "StatefulPartitionedCall/ReduceJoin/ReduceJoin/reduction_indices", "op": "Const", "attr": {"dtype": {"type": "DT_INT32"}, "value": {"tensor": {"dtype": "DT_INT32", "tensorShape": {}}}}}, {"name": "StatefulPartitionedCall/Const_49", "op": "Const", "attr": {"dtype": {"type": "DT_INT64"}, "value": {"tensor": {"dtype": "DT_INT64", "tensorShape": {}}}}}, {"name": "StatefulPartitionedCall/SelectV2_98/condition", "op": "Const", "attr": {"dtype": {"type": "DT_BOOL"}, "value": {"tensor": {"dtype": "DT_BOOL", "tensorShape": {"dim": [{"size": "1"}, {"size": "1"}, {"size": "2106"}]}}}}}, {"name": "StatefulPartitionedCall/SelectV2_98/t", "op": "Const", "attr": {"dtype": {"type": "DT_FLOAT"}, "value": {"tensor": {"dtype": "DT_FLOAT", "tensorShape": {}}}}}, {"name": "StatefulPartitionedCall/decoder/dense_3/Tensordot_49/Const", "op": "Const", "attr": {"dtype": {"type": "DT_INT32"}, "value": {"tensor": {"dtype": "DT_INT32", "tensorShape": {"dim": [{"size": "1"}]}}}}}, {"name": "StatefulPartitionedCall/decoder/dense_3/Tensordot_49/axes", "op": "Const", "attr": {"dtype": {"type": "DT_INT32"}, "value": {"tensor": {"dtype": "DT_INT32", "tensorShape": {"dim": [{"size": "1"}]}}}}}, {"name": "StatefulPartitionedCall/decoder/dense_3/Tensordot_49/GatherV2_1/axis", "op": "Const", "attr": {"value": {"tensor": {"dtype": "DT_INT32", "tensorShape": {}}}, "dtype": {"type": "DT_INT32"}}}, {"name": "StatefulPartitionedCall/decoder/dense_3/Tensordot_49/Const_1", "op": "Const", "attr": {"dtype": {"type": "DT_INT32"}, "value": {"tensor": {"dtype": "DT_INT32", "tensorShape": {"dim": [{"size": "1"}]}}}}}, {"name": "StatefulPartitionedCall/decoder/dense_3/Tensordot_49/ReadVariableOp", "op": "Const", "attr": {"value": {"tensor": {"dtype": "DT_FLOAT", "tensorShape": {"dim": [{"size": "1024"}, {"size": "2106"}]}}}, "dtype": {"type": "DT_FLOAT"}}}, {"name": "StatefulPartitionedCall/decoder/dense_2/Tensordot_49/Const", "op": "Const", "attr": {"dtype": {"type": "DT_INT32"}, "value": {"tensor": {"dtype": "DT_INT32", "tensorShape": {"dim": [{"size": "1"}]}}}}}, {"name": "StatefulPartitionedCall/decoder/dense_2/Tensordot_49/axes", "op": "Const", "attr": {"dtype": {"type": "DT_INT32"}, "value": {"tensor": {"dtype": "DT_INT32", "tensorShape": {"dim": [{"size": "1"}]}}}}}, {"name": "StatefulPartitionedCall/decoder/dense_2/Tensordot_49/GatherV2_1/axis", "op": "Const", "attr": {"value": {"tensor": {"dtype": "DT_INT32", "tensorShape": {}}}, "dtype": {"type": "DT_INT32"}}}, {"name": "StatefulPartitionedCall/decoder/dense_2/Tensordot_49/Const_1", "op": "Const", "attr": {"dtype": {"type": "DT_INT32"}, "value": {"tensor": {"dtype": "DT_INT32", "tensorShape": {"dim": [{"size": "1"}]}}}}}, {"name": "StatefulPartitionedCall/decoder/dense_2/Tensordot_49/ReadVariableOp", "op": "Const", "attr": {"dtype": {"type": "DT_FLOAT"}, "value": {"tensor": {"dtype": "DT_FLOAT", "tensorShape": {"dim": [{"size": "2048"}, {"size": "1024"}]}}}}}, {"name": "StatefulPartitionedCall/decoder/bahdanau_attention/additive_attention/ReadVariableOp_49", "op": "Const", "attr": {"value": {"tensor": {"dtype": "DT_FLOAT", "tensorShape": {"dim": [{"size": "1024"}]}}}, "dtype": {"type": "DT_FLOAT"}}}, {"name": "StatefulPartitionedCall/decoder/bahdanau_attention/dense/Tensordot_49/Const", "op": "Const", "attr": {"value": {"tensor": {"dtype": "DT_INT32", "tensorShape": {"dim": [{"size": "1"}]}}}, "dtype": {"type": "DT_INT32"}}}, {"name": "StatefulPartitionedCall/decoder/bahdanau_attention/dense/Tensordot_49/axes", "op": "Const", "attr": {"value": {"tensor": {"dtype": "DT_INT32", "tensorShape": {"dim": [{"size": "1"}]}}}, "dtype": {"type": "DT_INT32"}}}, {"name": "StatefulPartitionedCall/decoder/bahdanau_attention/dense/Tensordot_49/GatherV2_1/axis", "op": "Const", "attr": {"dtype": {"type": "DT_INT32"}, "value": {"tensor": {"dtype": "DT_INT32", "tensorShape": {}}}}}, {"name": "StatefulPartitionedCall/decoder/bahdanau_attention/dense/Tensordot_49/Const_1", "op": "Const", "attr": {"dtype": {"type": "DT_INT32"}, "value": {"tensor": {"dtype": "DT_INT32", "tensorShape": {"dim": [{"size": "1"}]}}}}}, {"name": "StatefulPartitionedCall/decoder/bahdanau_attention/dense/Tensordot_49/ReadVariableOp", "op": "Const", "attr": {"dtype": {"type": "DT_FLOAT"}, "value": {"tensor": {"dtype": "DT_FLOAT", "tensorShape": {"dim": [{"size": "1024"}, {"size": "1024"}]}}}}}, {"name": "StatefulPartitionedCall/decoder/bahdanau_attention/dense/Tensordot_49/free", "op": "Const", "attr": {"value": {"tensor": {"dtype": "DT_INT32", "tensorShape": {"dim": [{"size": "2"}]}}}, "dtype": {"type": "DT_INT32"}}}, {"name": "StatefulPartitionedCall/decoder/bahdanau_attention/dense/Tensordot_49/GatherV2/axis", "op": "Const", "attr": {"dtype": {"type": "DT_INT32"}, "value": {"tensor": {"dtype": "DT_INT32", "tensorShape": {}}}}}, {"name": "StatefulPartitionedCall/decoder/bahdanau_attention/dense/Tensordot_49/Const_2", "op": "Const", "attr": {"dtype": {"type": "DT_INT32"}, "value": {"tensor": {"dtype": "DT_INT32", "tensorShape": {"dim": [{"size": "1"}]}}}}}, {"name": "StatefulPartitionedCall/decoder/bahdanau_attention/dense/Tensordot_49/concat_1/axis", "op": "Const", "attr": {"dtype": {"type": "DT_INT32"}, "value": {"tensor": {"dtype": "DT_INT32", "tensorShape": {}}}}}, {"name": "StatefulPartitionedCall/decoder/bahdanau_attention/additive_attention/ExpandDims_196/dim", "op": "Const", "attr": {"dtype": {"type": "DT_INT32"}, "value": {"tensor": {"dtype": "DT_INT32", "tensorShape": {}}}}}, {"name": "StatefulPartitionedCall/decoder/bahdanau_attention/dense_1/Tensordot_49/Const", "op": "Const", "attr": {"value": {"tensor": {"dtype": "DT_INT32", "tensorShape": {"dim": [{"size": "1"}]}}}, "dtype": {"type": "DT_INT32"}}}, {"name": "StatefulPartitionedCall/decoder/bahdanau_attention/dense_1/Tensordot_49/axes", "op": "Const", "attr": {"value": {"tensor": {"dtype": "DT_INT32", "tensorShape": {"dim": [{"size": "1"}]}}}, "dtype": {"type": "DT_INT32"}}}, {"name": "StatefulPartitionedCall/decoder/bahdanau_attention/dense_1/Tensordot_49/GatherV2_1/axis", "op": "Const", "attr": {"value": {"tensor": {"dtype": "DT_INT32", "tensorShape": {}}}, "dtype": {"type": "DT_INT32"}}}, {"name": "StatefulPartitionedCall/decoder/bahdanau_attention/dense_1/Tensordot_49/Const_1", "op": "Const", "attr": {"value": {"tensor": {"dtype": "DT_INT32", "tensorShape": {"dim": [{"size": "1"}]}}}, "dtype": {"type": "DT_INT32"}}}, {"name": "StatefulPartitionedCall/decoder/bahdanau_attention/dense_1/Tensordot_49/ReadVariableOp", "op": "Const", "attr": {"value": {"tensor": {"dtype": "DT_FLOAT", "tensorShape": {"dim": [{"size": "1024"}, {"size": "1024"}]}}}, "dtype": {"type": "DT_FLOAT"}}}, {"name": "StatefulPartitionedCall/decoder/bahdanau_attention/dense_1/Tensordot_49/free", "op": "Const", "attr": {"dtype": {"type": "DT_INT32"}, "value": {"tensor": {"dtype": "DT_INT32", "tensorShape": {"dim": [{"size": "2"}]}}}}}, {"name": "StatefulPartitionedCall/decoder/bahdanau_attention/dense_1/Tensordot_49/GatherV2/axis", "op": "Const", "attr": {"dtype": {"type": "DT_INT32"}, "value": {"tensor": {"dtype": "DT_INT32", "tensorShape": {}}}}}, {"name": "StatefulPartitionedCall/decoder/bahdanau_attention/dense_1/Tensordot_49/Const_2", "op": "Const", "attr": {"dtype": {"type": "DT_INT32"}, "value": {"tensor": {"dtype": "DT_INT32", "tensorShape": {"dim": [{"size": "1"}]}}}}}, {"name": "StatefulPartitionedCall/decoder/bahdanau_attention/dense_1/Tensordot_49/concat_1/axis", "op": "Const", "attr": {"value": {"tensor": {"dtype": "DT_INT32", "tensorShape": {}}}, "dtype": {"type": "DT_INT32"}}}, {"name": "StatefulPartitionedCall/decoder/bahdanau_attention/additive_attention/ExpandDims_197/dim", "op": "Const", "attr": {"value": {"tensor": {"dtype": "DT_INT32", "tensorShape": {}}}, "dtype": {"type": "DT_INT32"}}}, {"name": "StatefulPartitionedCall/decoder/bahdanau_attention/additive_attention/Sum_49/reduction_indices", "op": "Const", "attr": {"value": {"tensor": {"dtype": "DT_INT32", "tensorShape": {}}}, "dtype": {"type": "DT_INT32"}}}, {"name": "StatefulPartitionedCall/decoder/bahdanau_attention/additive_attention/mul_148/x", "op": "Const", "attr": {"dtype": {"type": "DT_FLOAT"}, "value": {"tensor": {"dtype": "DT_FLOAT", "tensorShape": {}}}}}, {"name": "StatefulPartitionedCall/x_49", "op": "Const", "attr": {"dtype": {"type": "DT_INT64"}, "value": {"tensor": {"dtype": "DT_INT64", "tensorShape": {}}}}}, {"name": "StatefulPartitionedCall/decoder/bahdanau_attention/additive_attention/ExpandDims_198/dim", "op": "Const", "attr": {"value": {"tensor": {"dtype": "DT_INT32", "tensorShape": {}}}, "dtype": {"type": "DT_INT32"}}}, {"name": "StatefulPartitionedCall/decoder/bahdanau_attention/strided_slice_49/stack", "op": "Const", "attr": {"dtype": {"type": "DT_INT32"}, "value": {"tensor": {"dtype": "DT_INT32", "tensorShape": {"dim": [{"size": "1"}]}}}}}, {"name": "StatefulPartitionedCall/decoder/bahdanau_attention/strided_slice_49/stack_1", "op": "Const", "attr": {"value": {"tensor": {"dtype": "DT_INT32", "tensorShape": {"dim": [{"size": "1"}]}}}, "dtype": {"type": "DT_INT32"}}}, {"name": "StatefulPartitionedCall/decoder/bahdanau_attention/strided_slice_49/stack_2", "op": "Const", "attr": {"dtype": {"type": "DT_INT32"}, "value": {"tensor": {"dtype": "DT_INT32", "tensorShape": {"dim": [{"size": "1"}]}}}}}, {"name": "StatefulPartitionedCall/decoder/bahdanau_attention/ones_49/Const", "op": "Const", "attr": {"dtype": {"type": "DT_BOOL"}, "value": {"tensor": {"dtype": "DT_BOOL", "tensorShape": {}}}}}, {"name": "StatefulPartitionedCall/decoder/bahdanau_attention/additive_attention/ExpandDims_199/dim", "op": "Const", "attr": {"dtype": {"type": "DT_INT32"}, "value": {"tensor": {"dtype": "DT_INT32", "tensorShape": {}}}}}, {"name": "StatefulPartitionedCall/decoder/gru_1/PartitionedCall_49/TensorArrayV2_1/element_shape", "op": "Const", "attr": {"dtype": {"type": "DT_INT32"}, "value": {"tensor": {"dtype": "DT_INT32", "tensorShape": {"dim": [{"size": "2"}]}}}}}, {"name": "StatefulPartitionedCall/decoder/gru_1/PartitionedCall_49/TensorArrayUnstack/TensorListFromTensor/element_shape", "op": "Const", "attr": {"dtype": {"type": "DT_INT32"}, "value": {"tensor": {"dtype": "DT_INT32", "tensorShape": {"dim": [{"size": "2"}]}}}}}, {"name": "StatefulPartitionedCall/decoder/gru_1/Read_147/ReadVariableOp", "op": "Const", "attr": {"value": {"tensor": {"dtype": "DT_FLOAT", "tensorShape": {"dim": [{"size": "256"}, {"size": "3072"}]}}}, "dtype": {"type": "DT_FLOAT"}}}, {"name": "ConstantFolding/StatefulPartitionedCall/decoder/gru_1/PartitionedCall_49/unstack-folded-0", "op": "Const", "attr": {"dtype": {"type": "DT_FLOAT"}, "value": {"tensor": {"dtype": "DT_FLOAT", "tensorShape": {"dim": [{"size": "3072"}]}}}}}, {"name": "StatefulPartitionedCall/decoder/gru_1/Read_148/ReadVariableOp", "op": "Const", "attr": {"dtype": {"type": "DT_FLOAT"}, "value": {"tensor": {"dtype": "DT_FLOAT", "tensorShape": {"dim": [{"size": "1024"}, {"size": "3072"}]}}}}}, {"name": "ConstantFolding/StatefulPartitionedCall/decoder/gru_1/PartitionedCall_49/unstack-folded-1", "op": "Const", "attr": {"value": {"tensor": {"dtype": "DT_FLOAT", "tensorShape": {"dim": [{"size": "3072"}]}}}, "dtype": {"type": "DT_FLOAT"}}}, {"name": "StatefulPartitionedCall/decoder/gru_1/PartitionedCall_49/time", "op": "Const", "attr": {"value": {"tensor": {"dtype": "DT_INT32", "tensorShape": {}}}, "dtype": {"type": "DT_INT32"}}}, {"name": "StatefulPartitionedCall/decoder/gru_1/PartitionedCall_49/transpose/perm", "op": "Const", "attr": {"dtype": {"type": "DT_INT32"}, "value": {"tensor": {"dtype": "DT_INT32", "tensorShape": {"dim": [{"size": "3"}]}}}}}, {"name": "StatefulPartitionedCall/decoder/gru_1/PartitionedCall_49/strided_slice/stack", "op": "Const", "attr": {"dtype": {"type": "DT_INT32"}, "value": {"tensor": {"dtype": "DT_INT32", "tensorShape": {"dim": [{"size": "1"}]}}}}}, {"name": "StatefulPartitionedCall/decoder/gru_1/PartitionedCall_49/strided_slice/stack_1", "op": "Const", "attr": {"dtype": {"type": "DT_INT32"}, "value": {"tensor": {"dtype": "DT_INT32", "tensorShape": {"dim": [{"size": "1"}]}}}}}, {"name": "StatefulPartitionedCall/decoder/gru_1/PartitionedCall_49/strided_slice/stack_2", "op": "Const", "attr": {"value": {"tensor": {"dtype": "DT_INT32", "tensorShape": {"dim": [{"size": "1"}]}}}, "dtype": {"type": "DT_INT32"}}}, {"name": "StatefulPartitionedCall/decoder/gru_1/PartitionedCall_49/while/loop_counter", "op": "Const", "attr": {"dtype": {"type": "DT_INT32"}, "value": {"tensor": {"dtype": "DT_INT32", "tensorShape": {}}}}}, {"name": "StatefulPartitionedCall/decoder/gru_1/PartitionedCall_49/TensorArrayV2Stack/TensorListStack/element_shape", "op": "Const", "attr": {"value": {"tensor": {"dtype": "DT_INT32", "tensorShape": {"dim": [{"size": "2"}]}}}, "dtype": {"type": "DT_INT32"}}}, {"name": "StatefulPartitionedCall/decoder/gru_1/PartitionedCall_49/transpose_1/perm", "op": "Const", "attr": {"dtype": {"type": "DT_INT32"}, "value": {"tensor": {"dtype": "DT_INT32", "tensorShape": {"dim": [{"size": "3"}]}}}}}, {"name": "StatefulPartitionedCall/decoder/concat_49/axis", "op": "Const", "attr": {"value": {"tensor": {"dtype": "DT_INT32", "tensorShape": {}}}, "dtype": {"type": "DT_INT32"}}}, {"name": "StatefulPartitionedCall/decoder/dense_2/Tensordot_49/free", "op": "Const", "attr": {"dtype": {"type": "DT_INT32"}, "value": {"tensor": {"dtype": "DT_INT32", "tensorShape": {"dim": [{"size": "2"}]}}}}}, {"name": "StatefulPartitionedCall/decoder/dense_2/Tensordot_49/GatherV2/axis", "op": "Const", "attr": {"dtype": {"type": "DT_INT32"}, "value": {"tensor": {"dtype": "DT_INT32", "tensorShape": {}}}}}, {"name": "StatefulPartitionedCall/decoder/dense_2/Tensordot_49/Const_2", "op": "Const", "attr": {"value": {"tensor": {"dtype": "DT_INT32", "tensorShape": {"dim": [{"size": "1"}]}}}, "dtype": {"type": "DT_INT32"}}}, {"name": "StatefulPartitionedCall/decoder/dense_2/Tensordot_49/concat_1/axis", "op": "Const", "attr": {"dtype": {"type": "DT_INT32"}, "value": {"tensor": {"dtype": "DT_INT32", "tensorShape": {}}}}}, {"name": "StatefulPartitionedCall/decoder/dense_3/Tensordot_49/free", "op": "Const", "attr": {"dtype": {"type": "DT_INT32"}, "value": {"tensor": {"dtype": "DT_INT32", "tensorShape": {"dim": [{"size": "2"}]}}}}}, {"name": "StatefulPartitionedCall/decoder/dense_3/Tensordot_49/GatherV2/axis", "op": "Const", "attr": {"value": {"tensor": {"dtype": "DT_INT32", "tensorShape": {}}}, "dtype": {"type": "DT_INT32"}}}, {"name": "StatefulPartitionedCall/decoder/dense_3/Tensordot_49/Const_2", "op": "Const", "attr": {"dtype": {"type": "DT_INT32"}, "value": {"tensor": {"dtype": "DT_INT32", "tensorShape": {"dim": [{"size": "1"}]}}}}}, {"name": "StatefulPartitionedCall/decoder/dense_3/Tensordot_49/concat_1/axis", "op": "Const", "attr": {"value": {"tensor": {"dtype": "DT_INT32", "tensorShape": {}}}, "dtype": {"type": "DT_INT32"}}}, {"name": "StatefulPartitionedCall/decoder/dense_3/BiasAdd_49/ReadVariableOp", "op": "Const", "attr": {"dtype": {"type": "DT_FLOAT"}, "value": {"tensor": {"dtype": "DT_FLOAT", "tensorShape": {"dim": [{"size": "2106"}]}}}}}, {"name": "StatefulPartitionedCall/categorical_49/Multinomial/num_samples", "op": "Const", "attr": {"dtype": {"type": "DT_INT32"}, "value": {"tensor": {"dtype": "DT_INT32", "tensorShape": {}}}}}, {"name": "StatefulPartitionedCall/concat/axis", "op": "Const", "attr": {"value": {"tensor": {"dtype": "DT_INT32", "tensorShape": {}}}, "dtype": {"type": "DT_INT32"}}}, {"name": "unknown_18", "op": "Const", "attr": {"dtype": {"type": "DT_STRING"}, "value": {"tensor": {"dtype": "DT_STRING", "tensorShape": {}}}}}, {"name": "StatefulPartitionedCall/Const_48", "op": "Const", "attr": {"dtype": {"type": "DT_INT64"}, "value": {"tensor": {"dtype": "DT_INT64", "tensorShape": {}}}}}, {"name": "StatefulPartitionedCall/SelectV2_96/condition", "op": "Const", "attr": {"dtype": {"type": "DT_BOOL"}, "value": {"tensor": {"dtype": "DT_BOOL", "tensorShape": {"dim": [{"size": "1"}, {"size": "1"}, {"size": "2106"}]}}}}}, {"name": "StatefulPartitionedCall/SelectV2_96/t", "op": "Const", "attr": {"dtype": {"type": "DT_FLOAT"}, "value": {"tensor": {"dtype": "DT_FLOAT", "tensorShape": {}}}}}, {"name": "StatefulPartitionedCall/decoder/dense_3/Tensordot_48/Const", "op": "Const", "attr": {"dtype": {"type": "DT_INT32"}, "value": {"tensor": {"dtype": "DT_INT32", "tensorShape": {"dim": [{"size": "1"}]}}}}}, {"name": "StatefulPartitionedCall/decoder/dense_3/Tensordot_48/axes", "op": "Const", "attr": {"value": {"tensor": {"dtype": "DT_INT32", "tensorShape": {"dim": [{"size": "1"}]}}}, "dtype": {"type": "DT_INT32"}}}, {"name": "StatefulPartitionedCall/decoder/dense_3/Tensordot_48/GatherV2_1/axis", "op": "Const", "attr": {"dtype": {"type": "DT_INT32"}, "value": {"tensor": {"dtype": "DT_INT32", "tensorShape": {}}}}}, {"name": "StatefulPartitionedCall/decoder/dense_3/Tensordot_48/Const_1", "op": "Const", "attr": {"dtype": {"type": "DT_INT32"}, "value": {"tensor": {"dtype": "DT_INT32", "tensorShape": {"dim": [{"size": "1"}]}}}}}, {"name": "StatefulPartitionedCall/decoder/dense_3/Tensordot_48/ReadVariableOp", "op": "Const", "attr": {"value": {"tensor": {"dtype": "DT_FLOAT", "tensorShape": {"dim": [{"size": "1024"}, {"size": "2106"}]}}}, "dtype": {"type": "DT_FLOAT"}}}, {"name": "StatefulPartitionedCall/decoder/dense_2/Tensordot_48/Const", "op": "Const", "attr": {"dtype": {"type": "DT_INT32"}, "value": {"tensor": {"dtype": "DT_INT32", "tensorShape": {"dim": [{"size": "1"}]}}}}}, {"name": "StatefulPartitionedCall/decoder/dense_2/Tensordot_48/axes", "op": "Const", "attr": {"dtype": {"type": "DT_INT32"}, "value": {"tensor": {"dtype": "DT_INT32", "tensorShape": {"dim": [{"size": "1"}]}}}}}, {"name": "StatefulPartitionedCall/decoder/dense_2/Tensordot_48/GatherV2_1/axis", "op": "Const", "attr": {"value": {"tensor": {"dtype": "DT_INT32", "tensorShape": {}}}, "dtype": {"type": "DT_INT32"}}}, {"name": "StatefulPartitionedCall/decoder/dense_2/Tensordot_48/Const_1", "op": "Const", "attr": {"dtype": {"type": "DT_INT32"}, "value": {"tensor": {"dtype": "DT_INT32", "tensorShape": {"dim": [{"size": "1"}]}}}}}, {"name": "StatefulPartitionedCall/decoder/dense_2/Tensordot_48/ReadVariableOp", "op": "Const", "attr": {"value": {"tensor": {"dtype": "DT_FLOAT", "tensorShape": {"dim": [{"size": "2048"}, {"size": "1024"}]}}}, "dtype": {"type": "DT_FLOAT"}}}, {"name": "StatefulPartitionedCall/decoder/bahdanau_attention/additive_attention/ReadVariableOp_48", "op": "Const", "attr": {"dtype": {"type": "DT_FLOAT"}, "value": {"tensor": {"dtype": "DT_FLOAT", "tensorShape": {"dim": [{"size": "1024"}]}}}}}, {"name": "StatefulPartitionedCall/decoder/bahdanau_attention/dense/Tensordot_48/Const", "op": "Const", "attr": {"dtype": {"type": "DT_INT32"}, "value": {"tensor": {"dtype": "DT_INT32", "tensorShape": {"dim": [{"size": "1"}]}}}}}, {"name": "StatefulPartitionedCall/decoder/bahdanau_attention/dense/Tensordot_48/axes", "op": "Const", "attr": {"value": {"tensor": {"dtype": "DT_INT32", "tensorShape": {"dim": [{"size": "1"}]}}}, "dtype": {"type": "DT_INT32"}}}, {"name": "StatefulPartitionedCall/decoder/bahdanau_attention/dense/Tensordot_48/GatherV2_1/axis", "op": "Const", "attr": {"value": {"tensor": {"dtype": "DT_INT32", "tensorShape": {}}}, "dtype": {"type": "DT_INT32"}}}, {"name": "StatefulPartitionedCall/decoder/bahdanau_attention/dense/Tensordot_48/Const_1", "op": "Const", "attr": {"value": {"tensor": {"dtype": "DT_INT32", "tensorShape": {"dim": [{"size": "1"}]}}}, "dtype": {"type": "DT_INT32"}}}, {"name": "StatefulPartitionedCall/decoder/bahdanau_attention/dense/Tensordot_48/ReadVariableOp", "op": "Const", "attr": {"dtype": {"type": "DT_FLOAT"}, "value": {"tensor": {"dtype": "DT_FLOAT", "tensorShape": {"dim": [{"size": "1024"}, {"size": "1024"}]}}}}}, {"name": "StatefulPartitionedCall/decoder/bahdanau_attention/dense/Tensordot_48/free", "op": "Const", "attr": {"value": {"tensor": {"dtype": "DT_INT32", "tensorShape": {"dim": [{"size": "2"}]}}}, "dtype": {"type": "DT_INT32"}}}, {"name": "StatefulPartitionedCall/decoder/bahdanau_attention/dense/Tensordot_48/GatherV2/axis", "op": "Const", "attr": {"dtype": {"type": "DT_INT32"}, "value": {"tensor": {"dtype": "DT_INT32", "tensorShape": {}}}}}, {"name": "StatefulPartitionedCall/decoder/bahdanau_attention/dense/Tensordot_48/Const_2", "op": "Const", "attr": {"dtype": {"type": "DT_INT32"}, "value": {"tensor": {"dtype": "DT_INT32", "tensorShape": {"dim": [{"size": "1"}]}}}}}, {"name": "StatefulPartitionedCall/decoder/bahdanau_attention/dense/Tensordot_48/concat_1/axis", "op": "Const", "attr": {"dtype": {"type": "DT_INT32"}, "value": {"tensor": {"dtype": "DT_INT32", "tensorShape": {}}}}}, {"name": "StatefulPartitionedCall/decoder/bahdanau_attention/additive_attention/ExpandDims_192/dim", "op": "Const", "attr": {"dtype": {"type": "DT_INT32"}, "value": {"tensor": {"dtype": "DT_INT32", "tensorShape": {}}}}}, {"name": "StatefulPartitionedCall/decoder/bahdanau_attention/dense_1/Tensordot_48/Const", "op": "Const", "attr": {"value": {"tensor": {"dtype": "DT_INT32", "tensorShape": {"dim": [{"size": "1"}]}}}, "dtype": {"type": "DT_INT32"}}}, {"name": "StatefulPartitionedCall/decoder/bahdanau_attention/dense_1/Tensordot_48/axes", "op": "Const", "attr": {"dtype": {"type": "DT_INT32"}, "value": {"tensor": {"dtype": "DT_INT32", "tensorShape": {"dim": [{"size": "1"}]}}}}}, {"name": "StatefulPartitionedCall/decoder/bahdanau_attention/dense_1/Tensordot_48/GatherV2_1/axis", "op": "Const", "attr": {"value": {"tensor": {"dtype": "DT_INT32", "tensorShape": {}}}, "dtype": {"type": "DT_INT32"}}}, {"name": "StatefulPartitionedCall/decoder/bahdanau_attention/dense_1/Tensordot_48/Const_1", "op": "Const", "attr": {"value": {"tensor": {"dtype": "DT_INT32", "tensorShape": {"dim": [{"size": "1"}]}}}, "dtype": {"type": "DT_INT32"}}}, {"name": "StatefulPartitionedCall/decoder/bahdanau_attention/dense_1/Tensordot_48/ReadVariableOp", "op": "Const", "attr": {"dtype": {"type": "DT_FLOAT"}, "value": {"tensor": {"dtype": "DT_FLOAT", "tensorShape": {"dim": [{"size": "1024"}, {"size": "1024"}]}}}}}, {"name": "StatefulPartitionedCall/decoder/bahdanau_attention/dense_1/Tensordot_48/free", "op": "Const", "attr": {"value": {"tensor": {"dtype": "DT_INT32", "tensorShape": {"dim": [{"size": "2"}]}}}, "dtype": {"type": "DT_INT32"}}}, {"name": "StatefulPartitionedCall/decoder/bahdanau_attention/dense_1/Tensordot_48/GatherV2/axis", "op": "Const", "attr": {"value": {"tensor": {"dtype": "DT_INT32", "tensorShape": {}}}, "dtype": {"type": "DT_INT32"}}}, {"name": "StatefulPartitionedCall/decoder/bahdanau_attention/dense_1/Tensordot_48/Const_2", "op": "Const", "attr": {"value": {"tensor": {"dtype": "DT_INT32", "tensorShape": {"dim": [{"size": "1"}]}}}, "dtype": {"type": "DT_INT32"}}}, {"name": "StatefulPartitionedCall/decoder/bahdanau_attention/dense_1/Tensordot_48/concat_1/axis", "op": "Const", "attr": {"value": {"tensor": {"dtype": "DT_INT32", "tensorShape": {}}}, "dtype": {"type": "DT_INT32"}}}, {"name": "StatefulPartitionedCall/decoder/bahdanau_attention/additive_attention/ExpandDims_193/dim", "op": "Const", "attr": {"dtype": {"type": "DT_INT32"}, "value": {"tensor": {"dtype": "DT_INT32", "tensorShape": {}}}}}, {"name": "StatefulPartitionedCall/decoder/bahdanau_attention/additive_attention/Sum_48/reduction_indices", "op": "Const", "attr": {"dtype": {"type": "DT_INT32"}, "value": {"tensor": {"dtype": "DT_INT32", "tensorShape": {}}}}}, {"name": "StatefulPartitionedCall/decoder/bahdanau_attention/additive_attention/mul_145/x", "op": "Const", "attr": {"value": {"tensor": {"dtype": "DT_FLOAT", "tensorShape": {}}}, "dtype": {"type": "DT_FLOAT"}}}, {"name": "StatefulPartitionedCall/x_48", "op": "Const", "attr": {"value": {"tensor": {"dtype": "DT_INT64", "tensorShape": {}}}, "dtype": {"type": "DT_INT64"}}}, {"name": "StatefulPartitionedCall/decoder/bahdanau_attention/additive_attention/ExpandDims_194/dim", "op": "Const", "attr": {"dtype": {"type": "DT_INT32"}, "value": {"tensor": {"dtype": "DT_INT32", "tensorShape": {}}}}}, {"name": "StatefulPartitionedCall/decoder/bahdanau_attention/strided_slice_48/stack", "op": "Const", "attr": {"value": {"tensor": {"dtype": "DT_INT32", "tensorShape": {"dim": [{"size": "1"}]}}}, "dtype": {"type": "DT_INT32"}}}, {"name": "StatefulPartitionedCall/decoder/bahdanau_attention/strided_slice_48/stack_1", "op": "Const", "attr": {"dtype": {"type": "DT_INT32"}, "value": {"tensor": {"dtype": "DT_INT32", "tensorShape": {"dim": [{"size": "1"}]}}}}}, {"name": "StatefulPartitionedCall/decoder/bahdanau_attention/strided_slice_48/stack_2", "op": "Const", "attr": {"dtype": {"type": "DT_INT32"}, "value": {"tensor": {"dtype": "DT_INT32", "tensorShape": {"dim": [{"size": "1"}]}}}}}, {"name": "StatefulPartitionedCall/decoder/bahdanau_attention/ones_48/Const", "op": "Const", "attr": {"value": {"tensor": {"dtype": "DT_BOOL", "tensorShape": {}}}, "dtype": {"type": "DT_BOOL"}}}, {"name": "StatefulPartitionedCall/decoder/bahdanau_attention/additive_attention/ExpandDims_195/dim", "op": "Const", "attr": {"dtype": {"type": "DT_INT32"}, "value": {"tensor": {"dtype": "DT_INT32", "tensorShape": {}}}}}, {"name": "StatefulPartitionedCall/decoder/gru_1/PartitionedCall_48/TensorArrayV2_1/element_shape", "op": "Const", "attr": {"value": {"tensor": {"dtype": "DT_INT32", "tensorShape": {"dim": [{"size": "2"}]}}}, "dtype": {"type": "DT_INT32"}}}, {"name": "StatefulPartitionedCall/decoder/gru_1/PartitionedCall_48/TensorArrayUnstack/TensorListFromTensor/element_shape", "op": "Const", "attr": {"dtype": {"type": "DT_INT32"}, "value": {"tensor": {"dtype": "DT_INT32", "tensorShape": {"dim": [{"size": "2"}]}}}}}, {"name": "StatefulPartitionedCall/decoder/gru_1/Read_144/ReadVariableOp", "op": "Const", "attr": {"dtype": {"type": "DT_FLOAT"}, "value": {"tensor": {"dtype": "DT_FLOAT", "tensorShape": {"dim": [{"size": "256"}, {"size": "3072"}]}}}}}, {"name": "ConstantFolding/StatefulPartitionedCall/decoder/gru_1/PartitionedCall_48/unstack-folded-0", "op": "Const", "attr": {"dtype": {"type": "DT_FLOAT"}, "value": {"tensor": {"dtype": "DT_FLOAT", "tensorShape": {"dim": [{"size": "3072"}]}}}}}, {"name": "StatefulPartitionedCall/decoder/gru_1/Read_145/ReadVariableOp", "op": "Const", "attr": {"dtype": {"type": "DT_FLOAT"}, "value": {"tensor": {"dtype": "DT_FLOAT", "tensorShape": {"dim": [{"size": "1024"}, {"size": "3072"}]}}}}}, {"name": "ConstantFolding/StatefulPartitionedCall/decoder/gru_1/PartitionedCall_48/unstack-folded-1", "op": "Const", "attr": {"value": {"tensor": {"dtype": "DT_FLOAT", "tensorShape": {"dim": [{"size": "3072"}]}}}, "dtype": {"type": "DT_FLOAT"}}}, {"name": "StatefulPartitionedCall/decoder/gru_1/PartitionedCall_48/time", "op": "Const", "attr": {"value": {"tensor": {"dtype": "DT_INT32", "tensorShape": {}}}, "dtype": {"type": "DT_INT32"}}}, {"name": "StatefulPartitionedCall/Const_47", "op": "Const", "attr": {"value": {"tensor": {"dtype": "DT_INT64", "tensorShape": {}}}, "dtype": {"type": "DT_INT64"}}}, {"name": "StatefulPartitionedCall/SelectV2_94/condition", "op": "Const", "attr": {"value": {"tensor": {"dtype": "DT_BOOL", "tensorShape": {"dim": [{"size": "1"}, {"size": "1"}, {"size": "2106"}]}}}, "dtype": {"type": "DT_BOOL"}}}, {"name": "StatefulPartitionedCall/SelectV2_94/t", "op": "Const", "attr": {"dtype": {"type": "DT_FLOAT"}, "value": {"tensor": {"dtype": "DT_FLOAT", "tensorShape": {}}}}}, {"name": "StatefulPartitionedCall/decoder/dense_3/Tensordot_47/Const", "op": "Const", "attr": {"value": {"tensor": {"dtype": "DT_INT32", "tensorShape": {"dim": [{"size": "1"}]}}}, "dtype": {"type": "DT_INT32"}}}, {"name": "StatefulPartitionedCall/decoder/dense_3/Tensordot_47/axes", "op": "Const", "attr": {"dtype": {"type": "DT_INT32"}, "value": {"tensor": {"dtype": "DT_INT32", "tensorShape": {"dim": [{"size": "1"}]}}}}}, {"name": "StatefulPartitionedCall/decoder/dense_3/Tensordot_47/GatherV2_1/axis", "op": "Const", "attr": {"dtype": {"type": "DT_INT32"}, "value": {"tensor": {"dtype": "DT_INT32", "tensorShape": {}}}}}, {"name": "StatefulPartitionedCall/decoder/dense_3/Tensordot_47/Const_1", "op": "Const", "attr": {"dtype": {"type": "DT_INT32"}, "value": {"tensor": {"dtype": "DT_INT32", "tensorShape": {"dim": [{"size": "1"}]}}}}}, {"name": "StatefulPartitionedCall/decoder/dense_3/Tensordot_47/ReadVariableOp", "op": "Const", "attr": {"value": {"tensor": {"dtype": "DT_FLOAT", "tensorShape": {"dim": [{"size": "1024"}, {"size": "2106"}]}}}, "dtype": {"type": "DT_FLOAT"}}}, {"name": "StatefulPartitionedCall/decoder/dense_2/Tensordot_47/Const", "op": "Const", "attr": {"dtype": {"type": "DT_INT32"}, "value": {"tensor": {"dtype": "DT_INT32", "tensorShape": {"dim": [{"size": "1"}]}}}}}, {"name": "StatefulPartitionedCall/decoder/dense_2/Tensordot_47/axes", "op": "Const", "attr": {"value": {"tensor": {"dtype": "DT_INT32", "tensorShape": {"dim": [{"size": "1"}]}}}, "dtype": {"type": "DT_INT32"}}}, {"name": "StatefulPartitionedCall/decoder/dense_2/Tensordot_47/GatherV2_1/axis", "op": "Const", "attr": {"value": {"tensor": {"dtype": "DT_INT32", "tensorShape": {}}}, "dtype": {"type": "DT_INT32"}}}, {"name": "StatefulPartitionedCall/decoder/dense_2/Tensordot_47/Const_1", "op": "Const", "attr": {"value": {"tensor": {"dtype": "DT_INT32", "tensorShape": {"dim": [{"size": "1"}]}}}, "dtype": {"type": "DT_INT32"}}}, {"name": "StatefulPartitionedCall/decoder/dense_2/Tensordot_47/ReadVariableOp", "op": "Const", "attr": {"value": {"tensor": {"dtype": "DT_FLOAT", "tensorShape": {"dim": [{"size": "2048"}, {"size": "1024"}]}}}, "dtype": {"type": "DT_FLOAT"}}}, {"name": "StatefulPartitionedCall/decoder/bahdanau_attention/additive_attention/ReadVariableOp_47", "op": "Const", "attr": {"dtype": {"type": "DT_FLOAT"}, "value": {"tensor": {"dtype": "DT_FLOAT", "tensorShape": {"dim": [{"size": "1024"}]}}}}}, {"name": "StatefulPartitionedCall/decoder/bahdanau_attention/dense/Tensordot_47/Const", "op": "Const", "attr": {"value": {"tensor": {"dtype": "DT_INT32", "tensorShape": {"dim": [{"size": "1"}]}}}, "dtype": {"type": "DT_INT32"}}}, {"name": "StatefulPartitionedCall/decoder/bahdanau_attention/dense/Tensordot_47/axes", "op": "Const", "attr": {"value": {"tensor": {"dtype": "DT_INT32", "tensorShape": {"dim": [{"size": "1"}]}}}, "dtype": {"type": "DT_INT32"}}}, {"name": "StatefulPartitionedCall/decoder/bahdanau_attention/dense/Tensordot_47/GatherV2_1/axis", "op": "Const", "attr": {"dtype": {"type": "DT_INT32"}, "value": {"tensor": {"dtype": "DT_INT32", "tensorShape": {}}}}}, {"name": "StatefulPartitionedCall/decoder/bahdanau_attention/dense/Tensordot_47/Const_1", "op": "Const", "attr": {"dtype": {"type": "DT_INT32"}, "value": {"tensor": {"dtype": "DT_INT32", "tensorShape": {"dim": [{"size": "1"}]}}}}}, {"name": "StatefulPartitionedCall/decoder/bahdanau_attention/dense/Tensordot_47/ReadVariableOp", "op": "Const", "attr": {"dtype": {"type": "DT_FLOAT"}, "value": {"tensor": {"dtype": "DT_FLOAT", "tensorShape": {"dim": [{"size": "1024"}, {"size": "1024"}]}}}}}, {"name": "StatefulPartitionedCall/decoder/bahdanau_attention/dense/Tensordot_47/free", "op": "Const", "attr": {"value": {"tensor": {"dtype": "DT_INT32", "tensorShape": {"dim": [{"size": "2"}]}}}, "dtype": {"type": "DT_INT32"}}}, {"name": "StatefulPartitionedCall/decoder/bahdanau_attention/dense/Tensordot_47/GatherV2/axis", "op": "Const", "attr": {"value": {"tensor": {"dtype": "DT_INT32", "tensorShape": {}}}, "dtype": {"type": "DT_INT32"}}}, {"name": "StatefulPartitionedCall/decoder/bahdanau_attention/dense/Tensordot_47/Const_2", "op": "Const", "attr": {"value": {"tensor": {"dtype": "DT_INT32", "tensorShape": {"dim": [{"size": "1"}]}}}, "dtype": {"type": "DT_INT32"}}}, {"name": "StatefulPartitionedCall/decoder/bahdanau_attention/dense/Tensordot_47/concat_1/axis", "op": "Const", "attr": {"value": {"tensor": {"dtype": "DT_INT32", "tensorShape": {}}}, "dtype": {"type": "DT_INT32"}}}, {"name": "StatefulPartitionedCall/decoder/bahdanau_attention/additive_attention/ExpandDims_188/dim", "op": "Const", "attr": {"value": {"tensor": {"dtype": "DT_INT32", "tensorShape": {}}}, "dtype": {"type": "DT_INT32"}}}, {"name": "StatefulPartitionedCall/decoder/bahdanau_attention/dense_1/Tensordot_47/Const", "op": "Const", "attr": {"value": {"tensor": {"dtype": "DT_INT32", "tensorShape": {"dim": [{"size": "1"}]}}}, "dtype": {"type": "DT_INT32"}}}, {"name": "StatefulPartitionedCall/decoder/bahdanau_attention/dense_1/Tensordot_47/axes", "op": "Const", "attr": {"dtype": {"type": "DT_INT32"}, "value": {"tensor": {"dtype": "DT_INT32", "tensorShape": {"dim": [{"size": "1"}]}}}}}, {"name": "StatefulPartitionedCall/decoder/bahdanau_attention/dense_1/Tensordot_47/GatherV2_1/axis", "op": "Const", "attr": {"dtype": {"type": "DT_INT32"}, "value": {"tensor": {"dtype": "DT_INT32", "tensorShape": {}}}}}, {"name": "StatefulPartitionedCall/decoder/bahdanau_attention/dense_1/Tensordot_47/Const_1", "op": "Const", "attr": {"dtype": {"type": "DT_INT32"}, "value": {"tensor": {"dtype": "DT_INT32", "tensorShape": {"dim": [{"size": "1"}]}}}}}, {"name": "StatefulPartitionedCall/decoder/bahdanau_attention/dense_1/Tensordot_47/ReadVariableOp", "op": "Const", "attr": {"dtype": {"type": "DT_FLOAT"}, "value": {"tensor": {"dtype": "DT_FLOAT", "tensorShape": {"dim": [{"size": "1024"}, {"size": "1024"}]}}}}}, {"name": "StatefulPartitionedCall/decoder/bahdanau_attention/dense_1/Tensordot_47/free", "op": "Const", "attr": {"dtype": {"type": "DT_INT32"}, "value": {"tensor": {"dtype": "DT_INT32", "tensorShape": {"dim": [{"size": "2"}]}}}}}, {"name": "StatefulPartitionedCall/decoder/bahdanau_attention/dense_1/Tensordot_47/GatherV2/axis", "op": "Const", "attr": {"value": {"tensor": {"dtype": "DT_INT32", "tensorShape": {}}}, "dtype": {"type": "DT_INT32"}}}, {"name": "StatefulPartitionedCall/decoder/bahdanau_attention/dense_1/Tensordot_47/Const_2", "op": "Const", "attr": {"dtype": {"type": "DT_INT32"}, "value": {"tensor": {"dtype": "DT_INT32", "tensorShape": {"dim": [{"size": "1"}]}}}}}, {"name": "StatefulPartitionedCall/decoder/bahdanau_attention/dense_1/Tensordot_47/concat_1/axis", "op": "Const", "attr": {"dtype": {"type": "DT_INT32"}, "value": {"tensor": {"dtype": "DT_INT32", "tensorShape": {}}}}}, {"name": "StatefulPartitionedCall/decoder/bahdanau_attention/additive_attention/ExpandDims_189/dim", "op": "Const", "attr": {"value": {"tensor": {"dtype": "DT_INT32", "tensorShape": {}}}, "dtype": {"type": "DT_INT32"}}}, {"name": "StatefulPartitionedCall/decoder/bahdanau_attention/additive_attention/Sum_47/reduction_indices", "op": "Const", "attr": {"value": {"tensor": {"dtype": "DT_INT32", "tensorShape": {}}}, "dtype": {"type": "DT_INT32"}}}, {"name": "StatefulPartitionedCall/decoder/bahdanau_attention/additive_attention/mul_142/x", "op": "Const", "attr": {"value": {"tensor": {"dtype": "DT_FLOAT", "tensorShape": {}}}, "dtype": {"type": "DT_FLOAT"}}}, {"name": "StatefulPartitionedCall/x_47", "op": "Const", "attr": {"dtype": {"type": "DT_INT64"}, "value": {"tensor": {"dtype": "DT_INT64", "tensorShape": {}}}}}, {"name": "StatefulPartitionedCall/decoder/bahdanau_attention/additive_attention/ExpandDims_190/dim", "op": "Const", "attr": {"value": {"tensor": {"dtype": "DT_INT32", "tensorShape": {}}}, "dtype": {"type": "DT_INT32"}}}, {"name": "StatefulPartitionedCall/decoder/bahdanau_attention/strided_slice_47/stack", "op": "Const", "attr": {"value": {"tensor": {"dtype": "DT_INT32", "tensorShape": {"dim": [{"size": "1"}]}}}, "dtype": {"type": "DT_INT32"}}}, {"name": "StatefulPartitionedCall/decoder/bahdanau_attention/strided_slice_47/stack_1", "op": "Const", "attr": {"dtype": {"type": "DT_INT32"}, "value": {"tensor": {"dtype": "DT_INT32", "tensorShape": {"dim": [{"size": "1"}]}}}}}, {"name": "StatefulPartitionedCall/decoder/bahdanau_attention/strided_slice_47/stack_2", "op": "Const", "attr": {"value": {"tensor": {"dtype": "DT_INT32", "tensorShape": {"dim": [{"size": "1"}]}}}, "dtype": {"type": "DT_INT32"}}}, {"name": "StatefulPartitionedCall/decoder/bahdanau_attention/ones_47/Const", "op": "Const", "attr": {"dtype": {"type": "DT_BOOL"}, "value": {"tensor": {"dtype": "DT_BOOL", "tensorShape": {}}}}}, {"name": "StatefulPartitionedCall/decoder/bahdanau_attention/additive_attention/ExpandDims_191/dim", "op": "Const", "attr": {"value": {"tensor": {"dtype": "DT_INT32", "tensorShape": {}}}, "dtype": {"type": "DT_INT32"}}}, {"name": "StatefulPartitionedCall/decoder/gru_1/PartitionedCall_47/TensorArrayV2_1/element_shape", "op": "Const", "attr": {"value": {"tensor": {"dtype": "DT_INT32", "tensorShape": {"dim": [{"size": "2"}]}}}, "dtype": {"type": "DT_INT32"}}}, {"name": "StatefulPartitionedCall/decoder/gru_1/PartitionedCall_47/TensorArrayUnstack/TensorListFromTensor/element_shape", "op": "Const", "attr": {"dtype": {"type": "DT_INT32"}, "value": {"tensor": {"dtype": "DT_INT32", "tensorShape": {"dim": [{"size": "2"}]}}}}}, {"name": "StatefulPartitionedCall/decoder/gru_1/Read_141/ReadVariableOp", "op": "Const", "attr": {"value": {"tensor": {"dtype": "DT_FLOAT", "tensorShape": {"dim": [{"size": "256"}, {"size": "3072"}]}}}, "dtype": {"type": "DT_FLOAT"}}}, {"name": "ConstantFolding/StatefulPartitionedCall/decoder/gru_1/PartitionedCall_47/unstack-folded-0", "op": "Const", "attr": {"value": {"tensor": {"dtype": "DT_FLOAT", "tensorShape": {"dim": [{"size": "3072"}]}}}, "dtype": {"type": "DT_FLOAT"}}}, {"name": "StatefulPartitionedCall/decoder/gru_1/Read_142/ReadVariableOp", "op": "Const", "attr": {"dtype": {"type": "DT_FLOAT"}, "value": {"tensor": {"dtype": "DT_FLOAT", "tensorShape": {"dim": [{"size": "1024"}, {"size": "3072"}]}}}}}, {"name": "ConstantFolding/StatefulPartitionedCall/decoder/gru_1/PartitionedCall_47/unstack-folded-1", "op": "Const", "attr": {"value": {"tensor": {"dtype": "DT_FLOAT", "tensorShape": {"dim": [{"size": "3072"}]}}}, "dtype": {"type": "DT_FLOAT"}}}, {"name": "StatefulPartitionedCall/decoder/gru_1/PartitionedCall_47/time", "op": "Const", "attr": {"value": {"tensor": {"dtype": "DT_INT32", "tensorShape": {}}}, "dtype": {"type": "DT_INT32"}}}, {"name": "StatefulPartitionedCall/decoder/gru_1/PartitionedCall_47/transpose/perm", "op": "Const", "attr": {"value": {"tensor": {"dtype": "DT_INT32", "tensorShape": {"dim": [{"size": "3"}]}}}, "dtype": {"type": "DT_INT32"}}}, {"name": "StatefulPartitionedCall/decoder/gru_1/PartitionedCall_47/strided_slice/stack", "op": "Const", "attr": {"value": {"tensor": {"dtype": "DT_INT32", "tensorShape": {"dim": [{"size": "1"}]}}}, "dtype": {"type": "DT_INT32"}}}, {"name": "StatefulPartitionedCall/decoder/gru_1/PartitionedCall_47/strided_slice/stack_1", "op": "Const", "attr": {"dtype": {"type": "DT_INT32"}, "value": {"tensor": {"dtype": "DT_INT32", "tensorShape": {"dim": [{"size": "1"}]}}}}}, {"name": "StatefulPartitionedCall/decoder/gru_1/PartitionedCall_47/strided_slice/stack_2", "op": "Const", "attr": {"value": {"tensor": {"dtype": "DT_INT32", "tensorShape": {"dim": [{"size": "1"}]}}}, "dtype": {"type": "DT_INT32"}}}, {"name": "StatefulPartitionedCall/decoder/gru_1/PartitionedCall_47/while/loop_counter", "op": "Const", "attr": {"value": {"tensor": {"dtype": "DT_INT32", "tensorShape": {}}}, "dtype": {"type": "DT_INT32"}}}, {"name": "StatefulPartitionedCall/decoder/gru_1/PartitionedCall_47/TensorArrayV2Stack/TensorListStack/element_shape", "op": "Const", "attr": {"value": {"tensor": {"dtype": "DT_INT32", "tensorShape": {"dim": [{"size": "2"}]}}}, "dtype": {"type": "DT_INT32"}}}, {"name": "StatefulPartitionedCall/decoder/gru_1/PartitionedCall_47/transpose_1/perm", "op": "Const", "attr": {"dtype": {"type": "DT_INT32"}, "value": {"tensor": {"dtype": "DT_INT32", "tensorShape": {"dim": [{"size": "3"}]}}}}}, {"name": "StatefulPartitionedCall/decoder/concat_47/axis", "op": "Const", "attr": {"dtype": {"type": "DT_INT32"}, "value": {"tensor": {"dtype": "DT_INT32", "tensorShape": {}}}}}, {"name": "StatefulPartitionedCall/decoder/dense_2/Tensordot_47/free", "op": "Const", "attr": {"value": {"tensor": {"dtype": "DT_INT32", "tensorShape": {"dim": [{"size": "2"}]}}}, "dtype": {"type": "DT_INT32"}}}, {"name": "StatefulPartitionedCall/decoder/dense_2/Tensordot_47/GatherV2/axis", "op": "Const", "attr": {"dtype": {"type": "DT_INT32"}, "value": {"tensor": {"dtype": "DT_INT32", "tensorShape": {}}}}}, {"name": "StatefulPartitionedCall/decoder/dense_2/Tensordot_47/Const_2", "op": "Const", "attr": {"value": {"tensor": {"dtype": "DT_INT32", "tensorShape": {"dim": [{"size": "1"}]}}}, "dtype": {"type": "DT_INT32"}}}, {"name": "StatefulPartitionedCall/decoder/dense_2/Tensordot_47/concat_1/axis", "op": "Const", "attr": {"value": {"tensor": {"dtype": "DT_INT32", "tensorShape": {}}}, "dtype": {"type": "DT_INT32"}}}, {"name": "StatefulPartitionedCall/decoder/dense_3/Tensordot_47/free", "op": "Const", "attr": {"value": {"tensor": {"dtype": "DT_INT32", "tensorShape": {"dim": [{"size": "2"}]}}}, "dtype": {"type": "DT_INT32"}}}, {"name": "StatefulPartitionedCall/decoder/dense_3/Tensordot_47/GatherV2/axis", "op": "Const", "attr": {"value": {"tensor": {"dtype": "DT_INT32", "tensorShape": {}}}, "dtype": {"type": "DT_INT32"}}}, {"name": "StatefulPartitionedCall/decoder/dense_3/Tensordot_47/Const_2", "op": "Const", "attr": {"value": {"tensor": {"dtype": "DT_INT32", "tensorShape": {"dim": [{"size": "1"}]}}}, "dtype": {"type": "DT_INT32"}}}, {"name": "StatefulPartitionedCall/decoder/dense_3/Tensordot_47/concat_1/axis", "op": "Const", "attr": {"value": {"tensor": {"dtype": "DT_INT32", "tensorShape": {}}}, "dtype": {"type": "DT_INT32"}}}, {"name": "StatefulPartitionedCall/decoder/dense_3/BiasAdd_47/ReadVariableOp", "op": "Const", "attr": {"value": {"tensor": {"dtype": "DT_FLOAT", "tensorShape": {"dim": [{"size": "2106"}]}}}, "dtype": {"type": "DT_FLOAT"}}}, {"name": "StatefulPartitionedCall/categorical_47/Multinomial/num_samples", "op": "Const", "attr": {"value": {"tensor": {"dtype": "DT_INT32", "tensorShape": {}}}, "dtype": {"type": "DT_INT32"}}}, {"name": "StatefulPartitionedCall/decoder/embedding_1/embedding_lookup_48/axis", "op": "Const", "attr": {"dtype": {"type": "DT_INT64"}, "value": {"tensor": {"dtype": "DT_INT64", "tensorShape": {}}}}}, {"name": "StatefulPartitionedCall/decoder/gru_1/PartitionedCall_48/transpose/perm", "op": "Const", "attr": {"value": {"tensor": {"dtype": "DT_INT32", "tensorShape": {"dim": [{"size": "3"}]}}}, "dtype": {"type": "DT_INT32"}}}, {"name": "StatefulPartitionedCall/decoder/gru_1/PartitionedCall_48/strided_slice/stack", "op": "Const", "attr": {"dtype": {"type": "DT_INT32"}, "value": {"tensor": {"dtype": "DT_INT32", "tensorShape": {"dim": [{"size": "1"}]}}}}}, {"name": "StatefulPartitionedCall/decoder/gru_1/PartitionedCall_48/strided_slice/stack_1", "op": "Const", "attr": {"value": {"tensor": {"dtype": "DT_INT32", "tensorShape": {"dim": [{"size": "1"}]}}}, "dtype": {"type": "DT_INT32"}}}, {"name": "StatefulPartitionedCall/decoder/gru_1/PartitionedCall_48/strided_slice/stack_2", "op": "Const", "attr": {"value": {"tensor": {"dtype": "DT_INT32", "tensorShape": {"dim": [{"size": "1"}]}}}, "dtype": {"type": "DT_INT32"}}}, {"name": "StatefulPartitionedCall/decoder/gru_1/PartitionedCall_48/while/loop_counter", "op": "Const", "attr": {"value": {"tensor": {"dtype": "DT_INT32", "tensorShape": {}}}, "dtype": {"type": "DT_INT32"}}}, {"name": "StatefulPartitionedCall/decoder/gru_1/PartitionedCall_48/TensorArrayV2Stack/TensorListStack/element_shape", "op": "Const", "attr": {"value": {"tensor": {"dtype": "DT_INT32", "tensorShape": {"dim": [{"size": "2"}]}}}, "dtype": {"type": "DT_INT32"}}}, {"name": "StatefulPartitionedCall/decoder/gru_1/PartitionedCall_48/transpose_1/perm", "op": "Const", "attr": {"value": {"tensor": {"dtype": "DT_INT32", "tensorShape": {"dim": [{"size": "3"}]}}}, "dtype": {"type": "DT_INT32"}}}, {"name": "StatefulPartitionedCall/decoder/concat_48/axis", "op": "Const", "attr": {"value": {"tensor": {"dtype": "DT_INT32", "tensorShape": {}}}, "dtype": {"type": "DT_INT32"}}}, {"name": "StatefulPartitionedCall/decoder/dense_2/Tensordot_48/free", "op": "Const", "attr": {"dtype": {"type": "DT_INT32"}, "value": {"tensor": {"dtype": "DT_INT32", "tensorShape": {"dim": [{"size": "2"}]}}}}}, {"name": "StatefulPartitionedCall/decoder/dense_2/Tensordot_48/GatherV2/axis", "op": "Const", "attr": {"value": {"tensor": {"dtype": "DT_INT32", "tensorShape": {}}}, "dtype": {"type": "DT_INT32"}}}, {"name": "StatefulPartitionedCall/decoder/dense_2/Tensordot_48/Const_2", "op": "Const", "attr": {"dtype": {"type": "DT_INT32"}, "value": {"tensor": {"dtype": "DT_INT32", "tensorShape": {"dim": [{"size": "1"}]}}}}}, {"name": "StatefulPartitionedCall/decoder/dense_2/Tensordot_48/concat_1/axis", "op": "Const", "attr": {"value": {"tensor": {"dtype": "DT_INT32", "tensorShape": {}}}, "dtype": {"type": "DT_INT32"}}}, {"name": "StatefulPartitionedCall/decoder/dense_3/Tensordot_48/free", "op": "Const", "attr": {"value": {"tensor": {"dtype": "DT_INT32", "tensorShape": {"dim": [{"size": "2"}]}}}, "dtype": {"type": "DT_INT32"}}}, {"name": "StatefulPartitionedCall/decoder/dense_3/Tensordot_48/GatherV2/axis", "op": "Const", "attr": {"dtype": {"type": "DT_INT32"}, "value": {"tensor": {"dtype": "DT_INT32", "tensorShape": {}}}}}, {"name": "StatefulPartitionedCall/decoder/dense_3/Tensordot_48/Const_2", "op": "Const", "attr": {"dtype": {"type": "DT_INT32"}, "value": {"tensor": {"dtype": "DT_INT32", "tensorShape": {"dim": [{"size": "1"}]}}}}}, {"name": "StatefulPartitionedCall/decoder/dense_3/Tensordot_48/concat_1/axis", "op": "Const", "attr": {"dtype": {"type": "DT_INT32"}, "value": {"tensor": {"dtype": "DT_INT32", "tensorShape": {}}}}}, {"name": "StatefulPartitionedCall/decoder/dense_3/BiasAdd_48/ReadVariableOp", "op": "Const", "attr": {"dtype": {"type": "DT_FLOAT"}, "value": {"tensor": {"dtype": "DT_FLOAT", "tensorShape": {"dim": [{"size": "2106"}]}}}}}, {"name": "StatefulPartitionedCall/categorical_48/Multinomial/num_samples", "op": "Const", "attr": {"value": {"tensor": {"dtype": "DT_INT32", "tensorShape": {}}}, "dtype": {"type": "DT_INT32"}}}, {"name": "StatefulPartitionedCall/decoder/embedding_1/embedding_lookup_49/axis", "op": "Const", "attr": {"dtype": {"type": "DT_INT64"}, "value": {"tensor": {"dtype": "DT_INT64", "tensorShape": {}}}}}, {"name": "StatefulPartitionedCall/Const_46", "op": "Const", "attr": {"value": {"tensor": {"dtype": "DT_INT64", "tensorShape": {}}}, "dtype": {"type": "DT_INT64"}}}, {"name": "StatefulPartitionedCall/SelectV2_92/condition", "op": "Const", "attr": {"dtype": {"type": "DT_BOOL"}, "value": {"tensor": {"dtype": "DT_BOOL", "tensorShape": {"dim": [{"size": "1"}, {"size": "1"}, {"size": "2106"}]}}}}}, {"name": "StatefulPartitionedCall/SelectV2_92/t", "op": "Const", "attr": {"value": {"tensor": {"dtype": "DT_FLOAT", "tensorShape": {}}}, "dtype": {"type": "DT_FLOAT"}}}, {"name": "StatefulPartitionedCall/decoder/dense_3/Tensordot_46/Const", "op": "Const", "attr": {"dtype": {"type": "DT_INT32"}, "value": {"tensor": {"dtype": "DT_INT32", "tensorShape": {"dim": [{"size": "1"}]}}}}}, {"name": "StatefulPartitionedCall/decoder/dense_3/Tensordot_46/axes", "op": "Const", "attr": {"dtype": {"type": "DT_INT32"}, "value": {"tensor": {"dtype": "DT_INT32", "tensorShape": {"dim": [{"size": "1"}]}}}}}, {"name": "StatefulPartitionedCall/decoder/dense_3/Tensordot_46/GatherV2_1/axis", "op": "Const", "attr": {"value": {"tensor": {"dtype": "DT_INT32", "tensorShape": {}}}, "dtype": {"type": "DT_INT32"}}}, {"name": "StatefulPartitionedCall/decoder/dense_3/Tensordot_46/Const_1", "op": "Const", "attr": {"dtype": {"type": "DT_INT32"}, "value": {"tensor": {"dtype": "DT_INT32", "tensorShape": {"dim": [{"size": "1"}]}}}}}, {"name": "StatefulPartitionedCall/decoder/dense_3/Tensordot_46/ReadVariableOp", "op": "Const", "attr": {"dtype": {"type": "DT_FLOAT"}, "value": {"tensor": {"dtype": "DT_FLOAT", "tensorShape": {"dim": [{"size": "1024"}, {"size": "2106"}]}}}}}, {"name": "StatefulPartitionedCall/decoder/dense_2/Tensordot_46/Const", "op": "Const", "attr": {"dtype": {"type": "DT_INT32"}, "value": {"tensor": {"dtype": "DT_INT32", "tensorShape": {"dim": [{"size": "1"}]}}}}}, {"name": "StatefulPartitionedCall/decoder/dense_2/Tensordot_46/axes", "op": "Const", "attr": {"value": {"tensor": {"dtype": "DT_INT32", "tensorShape": {"dim": [{"size": "1"}]}}}, "dtype": {"type": "DT_INT32"}}}, {"name": "StatefulPartitionedCall/decoder/dense_2/Tensordot_46/GatherV2_1/axis", "op": "Const", "attr": {"dtype": {"type": "DT_INT32"}, "value": {"tensor": {"dtype": "DT_INT32", "tensorShape": {}}}}}, {"name": "StatefulPartitionedCall/decoder/dense_2/Tensordot_46/Const_1", "op": "Const", "attr": {"dtype": {"type": "DT_INT32"}, "value": {"tensor": {"dtype": "DT_INT32", "tensorShape": {"dim": [{"size": "1"}]}}}}}, {"name": "StatefulPartitionedCall/decoder/dense_2/Tensordot_46/ReadVariableOp", "op": "Const", "attr": {"value": {"tensor": {"dtype": "DT_FLOAT", "tensorShape": {"dim": [{"size": "2048"}, {"size": "1024"}]}}}, "dtype": {"type": "DT_FLOAT"}}}, {"name": "StatefulPartitionedCall/decoder/bahdanau_attention/additive_attention/ReadVariableOp_46", "op": "Const", "attr": {"dtype": {"type": "DT_FLOAT"}, "value": {"tensor": {"dtype": "DT_FLOAT", "tensorShape": {"dim": [{"size": "1024"}]}}}}}, {"name": "StatefulPartitionedCall/decoder/bahdanau_attention/dense/Tensordot_46/Const", "op": "Const", "attr": {"value": {"tensor": {"dtype": "DT_INT32", "tensorShape": {"dim": [{"size": "1"}]}}}, "dtype": {"type": "DT_INT32"}}}, {"name": "StatefulPartitionedCall/decoder/bahdanau_attention/dense/Tensordot_46/axes", "op": "Const", "attr": {"dtype": {"type": "DT_INT32"}, "value": {"tensor": {"dtype": "DT_INT32", "tensorShape": {"dim": [{"size": "1"}]}}}}}, {"name": "StatefulPartitionedCall/decoder/bahdanau_attention/dense/Tensordot_46/GatherV2_1/axis", "op": "Const", "attr": {"value": {"tensor": {"dtype": "DT_INT32", "tensorShape": {}}}, "dtype": {"type": "DT_INT32"}}}, {"name": "StatefulPartitionedCall/decoder/bahdanau_attention/dense/Tensordot_46/Const_1", "op": "Const", "attr": {"value": {"tensor": {"dtype": "DT_INT32", "tensorShape": {"dim": [{"size": "1"}]}}}, "dtype": {"type": "DT_INT32"}}}, {"name": "StatefulPartitionedCall/decoder/bahdanau_attention/dense/Tensordot_46/ReadVariableOp", "op": "Const", "attr": {"dtype": {"type": "DT_FLOAT"}, "value": {"tensor": {"dtype": "DT_FLOAT", "tensorShape": {"dim": [{"size": "1024"}, {"size": "1024"}]}}}}}, {"name": "StatefulPartitionedCall/decoder/bahdanau_attention/dense/Tensordot_46/free", "op": "Const", "attr": {"dtype": {"type": "DT_INT32"}, "value": {"tensor": {"dtype": "DT_INT32", "tensorShape": {"dim": [{"size": "2"}]}}}}}, {"name": "StatefulPartitionedCall/decoder/bahdanau_attention/dense/Tensordot_46/GatherV2/axis", "op": "Const", "attr": {"dtype": {"type": "DT_INT32"}, "value": {"tensor": {"dtype": "DT_INT32", "tensorShape": {}}}}}, {"name": "StatefulPartitionedCall/decoder/bahdanau_attention/dense/Tensordot_46/Const_2", "op": "Const", "attr": {"value": {"tensor": {"dtype": "DT_INT32", "tensorShape": {"dim": [{"size": "1"}]}}}, "dtype": {"type": "DT_INT32"}}}, {"name": "StatefulPartitionedCall/decoder/bahdanau_attention/dense/Tensordot_46/concat_1/axis", "op": "Const", "attr": {"value": {"tensor": {"dtype": "DT_INT32", "tensorShape": {}}}, "dtype": {"type": "DT_INT32"}}}, {"name": "StatefulPartitionedCall/decoder/bahdanau_attention/additive_attention/ExpandDims_184/dim", "op": "Const", "attr": {"dtype": {"type": "DT_INT32"}, "value": {"tensor": {"dtype": "DT_INT32", "tensorShape": {}}}}}, {"name": "StatefulPartitionedCall/decoder/bahdanau_attention/dense_1/Tensordot_46/Const", "op": "Const", "attr": {"value": {"tensor": {"dtype": "DT_INT32", "tensorShape": {"dim": [{"size": "1"}]}}}, "dtype": {"type": "DT_INT32"}}}, {"name": "StatefulPartitionedCall/decoder/bahdanau_attention/dense_1/Tensordot_46/axes", "op": "Const", "attr": {"value": {"tensor": {"dtype": "DT_INT32", "tensorShape": {"dim": [{"size": "1"}]}}}, "dtype": {"type": "DT_INT32"}}}, {"name": "StatefulPartitionedCall/decoder/bahdanau_attention/dense_1/Tensordot_46/GatherV2_1/axis", "op": "Const", "attr": {"value": {"tensor": {"dtype": "DT_INT32", "tensorShape": {}}}, "dtype": {"type": "DT_INT32"}}}, {"name": "StatefulPartitionedCall/decoder/bahdanau_attention/dense_1/Tensordot_46/Const_1", "op": "Const", "attr": {"value": {"tensor": {"dtype": "DT_INT32", "tensorShape": {"dim": [{"size": "1"}]}}}, "dtype": {"type": "DT_INT32"}}}, {"name": "StatefulPartitionedCall/decoder/bahdanau_attention/dense_1/Tensordot_46/ReadVariableOp", "op": "Const", "attr": {"dtype": {"type": "DT_FLOAT"}, "value": {"tensor": {"dtype": "DT_FLOAT", "tensorShape": {"dim": [{"size": "1024"}, {"size": "1024"}]}}}}}, {"name": "StatefulPartitionedCall/decoder/bahdanau_attention/dense_1/Tensordot_46/free", "op": "Const", "attr": {"dtype": {"type": "DT_INT32"}, "value": {"tensor": {"dtype": "DT_INT32", "tensorShape": {"dim": [{"size": "2"}]}}}}}, {"name": "StatefulPartitionedCall/decoder/bahdanau_attention/dense_1/Tensordot_46/GatherV2/axis", "op": "Const", "attr": {"dtype": {"type": "DT_INT32"}, "value": {"tensor": {"dtype": "DT_INT32", "tensorShape": {}}}}}, {"name": "StatefulPartitionedCall/decoder/bahdanau_attention/dense_1/Tensordot_46/Const_2", "op": "Const", "attr": {"value": {"tensor": {"dtype": "DT_INT32", "tensorShape": {"dim": [{"size": "1"}]}}}, "dtype": {"type": "DT_INT32"}}}, {"name": "StatefulPartitionedCall/decoder/bahdanau_attention/dense_1/Tensordot_46/concat_1/axis", "op": "Const", "attr": {"dtype": {"type": "DT_INT32"}, "value": {"tensor": {"dtype": "DT_INT32", "tensorShape": {}}}}}, {"name": "StatefulPartitionedCall/decoder/bahdanau_attention/additive_attention/ExpandDims_185/dim", "op": "Const", "attr": {"value": {"tensor": {"dtype": "DT_INT32", "tensorShape": {}}}, "dtype": {"type": "DT_INT32"}}}, {"name": "StatefulPartitionedCall/decoder/bahdanau_attention/additive_attention/Sum_46/reduction_indices", "op": "Const", "attr": {"dtype": {"type": "DT_INT32"}, "value": {"tensor": {"dtype": "DT_INT32", "tensorShape": {}}}}}, {"name": "StatefulPartitionedCall/decoder/bahdanau_attention/additive_attention/mul_139/x", "op": "Const", "attr": {"value": {"tensor": {"dtype": "DT_FLOAT", "tensorShape": {}}}, "dtype": {"type": "DT_FLOAT"}}}, {"name": "StatefulPartitionedCall/x_46", "op": "Const", "attr": {"value": {"tensor": {"dtype": "DT_INT64", "tensorShape": {}}}, "dtype": {"type": "DT_INT64"}}}, {"name": "StatefulPartitionedCall/decoder/bahdanau_attention/additive_attention/ExpandDims_186/dim", "op": "Const", "attr": {"value": {"tensor": {"dtype": "DT_INT32", "tensorShape": {}}}, "dtype": {"type": "DT_INT32"}}}, {"name": "StatefulPartitionedCall/decoder/bahdanau_attention/strided_slice_46/stack", "op": "Const", "attr": {"dtype": {"type": "DT_INT32"}, "value": {"tensor": {"dtype": "DT_INT32", "tensorShape": {"dim": [{"size": "1"}]}}}}}, {"name": "StatefulPartitionedCall/decoder/bahdanau_attention/strided_slice_46/stack_1", "op": "Const", "attr": {"dtype": {"type": "DT_INT32"}, "value": {"tensor": {"dtype": "DT_INT32", "tensorShape": {"dim": [{"size": "1"}]}}}}}, {"name": "StatefulPartitionedCall/decoder/bahdanau_attention/strided_slice_46/stack_2", "op": "Const", "attr": {"dtype": {"type": "DT_INT32"}, "value": {"tensor": {"dtype": "DT_INT32", "tensorShape": {"dim": [{"size": "1"}]}}}}}, {"name": "StatefulPartitionedCall/decoder/bahdanau_attention/ones_46/Const", "op": "Const", "attr": {"dtype": {"type": "DT_BOOL"}, "value": {"tensor": {"dtype": "DT_BOOL", "tensorShape": {}}}}}, {"name": "StatefulPartitionedCall/decoder/bahdanau_attention/additive_attention/ExpandDims_187/dim", "op": "Const", "attr": {"dtype": {"type": "DT_INT32"}, "value": {"tensor": {"dtype": "DT_INT32", "tensorShape": {}}}}}, {"name": "StatefulPartitionedCall/decoder/gru_1/PartitionedCall_46/TensorArrayV2_1/element_shape", "op": "Const", "attr": {"dtype": {"type": "DT_INT32"}, "value": {"tensor": {"dtype": "DT_INT32", "tensorShape": {"dim": [{"size": "2"}]}}}}}, {"name": "StatefulPartitionedCall/decoder/gru_1/PartitionedCall_46/TensorArrayUnstack/TensorListFromTensor/element_shape", "op": "Const", "attr": {"value": {"tensor": {"dtype": "DT_INT32", "tensorShape": {"dim": [{"size": "2"}]}}}, "dtype": {"type": "DT_INT32"}}}, {"name": "StatefulPartitionedCall/decoder/gru_1/Read_138/ReadVariableOp", "op": "Const", "attr": {"value": {"tensor": {"dtype": "DT_FLOAT", "tensorShape": {"dim": [{"size": "256"}, {"size": "3072"}]}}}, "dtype": {"type": "DT_FLOAT"}}}, {"name": "ConstantFolding/StatefulPartitionedCall/decoder/gru_1/PartitionedCall_46/unstack-folded-0", "op": "Const", "attr": {"value": {"tensor": {"dtype": "DT_FLOAT", "tensorShape": {"dim": [{"size": "3072"}]}}}, "dtype": {"type": "DT_FLOAT"}}}, {"name": "StatefulPartitionedCall/decoder/gru_1/Read_139/ReadVariableOp", "op": "Const", "attr": {"value": {"tensor": {"dtype": "DT_FLOAT", "tensorShape": {"dim": [{"size": "1024"}, {"size": "3072"}]}}}, "dtype": {"type": "DT_FLOAT"}}}, {"name": "ConstantFolding/StatefulPartitionedCall/decoder/gru_1/PartitionedCall_46/unstack-folded-1", "op": "Const", "attr": {"value": {"tensor": {"dtype": "DT_FLOAT", "tensorShape": {"dim": [{"size": "3072"}]}}}, "dtype": {"type": "DT_FLOAT"}}}, {"name": "StatefulPartitionedCall/decoder/gru_1/PartitionedCall_46/time", "op": "Const", "attr": {"dtype": {"type": "DT_INT32"}, "value": {"tensor": {"dtype": "DT_INT32", "tensorShape": {}}}}}, {"name": "StatefulPartitionedCall/Const_45", "op": "Const", "attr": {"value": {"tensor": {"dtype": "DT_INT64", "tensorShape": {}}}, "dtype": {"type": "DT_INT64"}}}, {"name": "StatefulPartitionedCall/SelectV2_90/condition", "op": "Const", "attr": {"dtype": {"type": "DT_BOOL"}, "value": {"tensor": {"dtype": "DT_BOOL", "tensorShape": {"dim": [{"size": "1"}, {"size": "1"}, {"size": "2106"}]}}}}}, {"name": "StatefulPartitionedCall/SelectV2_90/t", "op": "Const", "attr": {"dtype": {"type": "DT_FLOAT"}, "value": {"tensor": {"dtype": "DT_FLOAT", "tensorShape": {}}}}}, {"name": "StatefulPartitionedCall/decoder/dense_3/Tensordot_45/Const", "op": "Const", "attr": {"dtype": {"type": "DT_INT32"}, "value": {"tensor": {"dtype": "DT_INT32", "tensorShape": {"dim": [{"size": "1"}]}}}}}, {"name": "StatefulPartitionedCall/decoder/dense_3/Tensordot_45/axes", "op": "Const", "attr": {"dtype": {"type": "DT_INT32"}, "value": {"tensor": {"dtype": "DT_INT32", "tensorShape": {"dim": [{"size": "1"}]}}}}}, {"name": "StatefulPartitionedCall/decoder/dense_3/Tensordot_45/GatherV2_1/axis", "op": "Const", "attr": {"value": {"tensor": {"dtype": "DT_INT32", "tensorShape": {}}}, "dtype": {"type": "DT_INT32"}}}, {"name": "StatefulPartitionedCall/decoder/dense_3/Tensordot_45/Const_1", "op": "Const", "attr": {"dtype": {"type": "DT_INT32"}, "value": {"tensor": {"dtype": "DT_INT32", "tensorShape": {"dim": [{"size": "1"}]}}}}}, {"name": "StatefulPartitionedCall/decoder/dense_3/Tensordot_45/ReadVariableOp", "op": "Const", "attr": {"dtype": {"type": "DT_FLOAT"}, "value": {"tensor": {"dtype": "DT_FLOAT", "tensorShape": {"dim": [{"size": "1024"}, {"size": "2106"}]}}}}}, {"name": "StatefulPartitionedCall/decoder/dense_2/Tensordot_45/Const", "op": "Const", "attr": {"value": {"tensor": {"dtype": "DT_INT32", "tensorShape": {"dim": [{"size": "1"}]}}}, "dtype": {"type": "DT_INT32"}}}, {"name": "StatefulPartitionedCall/decoder/dense_2/Tensordot_45/axes", "op": "Const", "attr": {"value": {"tensor": {"dtype": "DT_INT32", "tensorShape": {"dim": [{"size": "1"}]}}}, "dtype": {"type": "DT_INT32"}}}, {"name": "StatefulPartitionedCall/decoder/dense_2/Tensordot_45/GatherV2_1/axis", "op": "Const", "attr": {"value": {"tensor": {"dtype": "DT_INT32", "tensorShape": {}}}, "dtype": {"type": "DT_INT32"}}}, {"name": "StatefulPartitionedCall/decoder/dense_2/Tensordot_45/Const_1", "op": "Const", "attr": {"dtype": {"type": "DT_INT32"}, "value": {"tensor": {"dtype": "DT_INT32", "tensorShape": {"dim": [{"size": "1"}]}}}}}, {"name": "StatefulPartitionedCall/decoder/dense_2/Tensordot_45/ReadVariableOp", "op": "Const", "attr": {"dtype": {"type": "DT_FLOAT"}, "value": {"tensor": {"dtype": "DT_FLOAT", "tensorShape": {"dim": [{"size": "2048"}, {"size": "1024"}]}}}}}, {"name": "StatefulPartitionedCall/decoder/bahdanau_attention/additive_attention/ReadVariableOp_45", "op": "Const", "attr": {"dtype": {"type": "DT_FLOAT"}, "value": {"tensor": {"dtype": "DT_FLOAT", "tensorShape": {"dim": [{"size": "1024"}]}}}}}, {"name": "StatefulPartitionedCall/decoder/bahdanau_attention/dense/Tensordot_45/Const", "op": "Const", "attr": {"value": {"tensor": {"dtype": "DT_INT32", "tensorShape": {"dim": [{"size": "1"}]}}}, "dtype": {"type": "DT_INT32"}}}, {"name": "StatefulPartitionedCall/decoder/bahdanau_attention/dense/Tensordot_45/axes", "op": "Const", "attr": {"value": {"tensor": {"dtype": "DT_INT32", "tensorShape": {"dim": [{"size": "1"}]}}}, "dtype": {"type": "DT_INT32"}}}, {"name": "StatefulPartitionedCall/decoder/bahdanau_attention/dense/Tensordot_45/GatherV2_1/axis", "op": "Const", "attr": {"dtype": {"type": "DT_INT32"}, "value": {"tensor": {"dtype": "DT_INT32", "tensorShape": {}}}}}, {"name": "StatefulPartitionedCall/decoder/bahdanau_attention/dense/Tensordot_45/Const_1", "op": "Const", "attr": {"dtype": {"type": "DT_INT32"}, "value": {"tensor": {"dtype": "DT_INT32", "tensorShape": {"dim": [{"size": "1"}]}}}}}, {"name": "StatefulPartitionedCall/decoder/bahdanau_attention/dense/Tensordot_45/ReadVariableOp", "op": "Const", "attr": {"value": {"tensor": {"dtype": "DT_FLOAT", "tensorShape": {"dim": [{"size": "1024"}, {"size": "1024"}]}}}, "dtype": {"type": "DT_FLOAT"}}}, {"name": "StatefulPartitionedCall/decoder/bahdanau_attention/dense/Tensordot_45/free", "op": "Const", "attr": {"dtype": {"type": "DT_INT32"}, "value": {"tensor": {"dtype": "DT_INT32", "tensorShape": {"dim": [{"size": "2"}]}}}}}, {"name": "StatefulPartitionedCall/decoder/bahdanau_attention/dense/Tensordot_45/GatherV2/axis", "op": "Const", "attr": {"value": {"tensor": {"dtype": "DT_INT32", "tensorShape": {}}}, "dtype": {"type": "DT_INT32"}}}, {"name": "StatefulPartitionedCall/decoder/bahdanau_attention/dense/Tensordot_45/Const_2", "op": "Const", "attr": {"dtype": {"type": "DT_INT32"}, "value": {"tensor": {"dtype": "DT_INT32", "tensorShape": {"dim": [{"size": "1"}]}}}}}, {"name": "StatefulPartitionedCall/decoder/bahdanau_attention/dense/Tensordot_45/concat_1/axis", "op": "Const", "attr": {"dtype": {"type": "DT_INT32"}, "value": {"tensor": {"dtype": "DT_INT32", "tensorShape": {}}}}}, {"name": "StatefulPartitionedCall/decoder/bahdanau_attention/additive_attention/ExpandDims_180/dim", "op": "Const", "attr": {"dtype": {"type": "DT_INT32"}, "value": {"tensor": {"dtype": "DT_INT32", "tensorShape": {}}}}}, {"name": "StatefulPartitionedCall/decoder/bahdanau_attention/dense_1/Tensordot_45/Const", "op": "Const", "attr": {"dtype": {"type": "DT_INT32"}, "value": {"tensor": {"dtype": "DT_INT32", "tensorShape": {"dim": [{"size": "1"}]}}}}}, {"name": "StatefulPartitionedCall/decoder/bahdanau_attention/dense_1/Tensordot_45/axes", "op": "Const", "attr": {"dtype": {"type": "DT_INT32"}, "value": {"tensor": {"dtype": "DT_INT32", "tensorShape": {"dim": [{"size": "1"}]}}}}}, {"name": "StatefulPartitionedCall/decoder/bahdanau_attention/dense_1/Tensordot_45/GatherV2_1/axis", "op": "Const", "attr": {"dtype": {"type": "DT_INT32"}, "value": {"tensor": {"dtype": "DT_INT32", "tensorShape": {}}}}}, {"name": "StatefulPartitionedCall/decoder/bahdanau_attention/dense_1/Tensordot_45/Const_1", "op": "Const", "attr": {"dtype": {"type": "DT_INT32"}, "value": {"tensor": {"dtype": "DT_INT32", "tensorShape": {"dim": [{"size": "1"}]}}}}}, {"name": "StatefulPartitionedCall/decoder/bahdanau_attention/dense_1/Tensordot_45/ReadVariableOp", "op": "Const", "attr": {"dtype": {"type": "DT_FLOAT"}, "value": {"tensor": {"dtype": "DT_FLOAT", "tensorShape": {"dim": [{"size": "1024"}, {"size": "1024"}]}}}}}, {"name": "StatefulPartitionedCall/decoder/bahdanau_attention/dense_1/Tensordot_45/free", "op": "Const", "attr": {"value": {"tensor": {"dtype": "DT_INT32", "tensorShape": {"dim": [{"size": "2"}]}}}, "dtype": {"type": "DT_INT32"}}}, {"name": "StatefulPartitionedCall/decoder/bahdanau_attention/dense_1/Tensordot_45/GatherV2/axis", "op": "Const", "attr": {"dtype": {"type": "DT_INT32"}, "value": {"tensor": {"dtype": "DT_INT32", "tensorShape": {}}}}}, {"name": "StatefulPartitionedCall/decoder/bahdanau_attention/dense_1/Tensordot_45/Const_2", "op": "Const", "attr": {"dtype": {"type": "DT_INT32"}, "value": {"tensor": {"dtype": "DT_INT32", "tensorShape": {"dim": [{"size": "1"}]}}}}}, {"name": "StatefulPartitionedCall/decoder/bahdanau_attention/dense_1/Tensordot_45/concat_1/axis", "op": "Const", "attr": {"dtype": {"type": "DT_INT32"}, "value": {"tensor": {"dtype": "DT_INT32", "tensorShape": {}}}}}, {"name": "StatefulPartitionedCall/decoder/bahdanau_attention/additive_attention/ExpandDims_181/dim", "op": "Const", "attr": {"value": {"tensor": {"dtype": "DT_INT32", "tensorShape": {}}}, "dtype": {"type": "DT_INT32"}}}, {"name": "StatefulPartitionedCall/decoder/bahdanau_attention/additive_attention/Sum_45/reduction_indices", "op": "Const", "attr": {"value": {"tensor": {"dtype": "DT_INT32", "tensorShape": {}}}, "dtype": {"type": "DT_INT32"}}}, {"name": "StatefulPartitionedCall/decoder/bahdanau_attention/additive_attention/mul_136/x", "op": "Const", "attr": {"dtype": {"type": "DT_FLOAT"}, "value": {"tensor": {"dtype": "DT_FLOAT", "tensorShape": {}}}}}, {"name": "StatefulPartitionedCall/x_45", "op": "Const", "attr": {"dtype": {"type": "DT_INT64"}, "value": {"tensor": {"dtype": "DT_INT64", "tensorShape": {}}}}}, {"name": "StatefulPartitionedCall/decoder/bahdanau_attention/additive_attention/ExpandDims_182/dim", "op": "Const", "attr": {"dtype": {"type": "DT_INT32"}, "value": {"tensor": {"dtype": "DT_INT32", "tensorShape": {}}}}}, {"name": "StatefulPartitionedCall/decoder/bahdanau_attention/strided_slice_45/stack", "op": "Const", "attr": {"dtype": {"type": "DT_INT32"}, "value": {"tensor": {"dtype": "DT_INT32", "tensorShape": {"dim": [{"size": "1"}]}}}}}, {"name": "StatefulPartitionedCall/decoder/bahdanau_attention/strided_slice_45/stack_1", "op": "Const", "attr": {"value": {"tensor": {"dtype": "DT_INT32", "tensorShape": {"dim": [{"size": "1"}]}}}, "dtype": {"type": "DT_INT32"}}}, {"name": "StatefulPartitionedCall/decoder/bahdanau_attention/strided_slice_45/stack_2", "op": "Const", "attr": {"dtype": {"type": "DT_INT32"}, "value": {"tensor": {"dtype": "DT_INT32", "tensorShape": {"dim": [{"size": "1"}]}}}}}, {"name": "StatefulPartitionedCall/decoder/bahdanau_attention/ones_45/Const", "op": "Const", "attr": {"value": {"tensor": {"dtype": "DT_BOOL", "tensorShape": {}}}, "dtype": {"type": "DT_BOOL"}}}, {"name": "StatefulPartitionedCall/decoder/bahdanau_attention/additive_attention/ExpandDims_183/dim", "op": "Const", "attr": {"value": {"tensor": {"dtype": "DT_INT32", "tensorShape": {}}}, "dtype": {"type": "DT_INT32"}}}, {"name": "StatefulPartitionedCall/decoder/gru_1/PartitionedCall_45/TensorArrayV2_1/element_shape", "op": "Const", "attr": {"dtype": {"type": "DT_INT32"}, "value": {"tensor": {"dtype": "DT_INT32", "tensorShape": {"dim": [{"size": "2"}]}}}}}, {"name": "StatefulPartitionedCall/decoder/gru_1/PartitionedCall_45/TensorArrayUnstack/TensorListFromTensor/element_shape", "op": "Const", "attr": {"value": {"tensor": {"dtype": "DT_INT32", "tensorShape": {"dim": [{"size": "2"}]}}}, "dtype": {"type": "DT_INT32"}}}, {"name": "StatefulPartitionedCall/decoder/gru_1/Read_135/ReadVariableOp", "op": "Const", "attr": {"value": {"tensor": {"dtype": "DT_FLOAT", "tensorShape": {"dim": [{"size": "256"}, {"size": "3072"}]}}}, "dtype": {"type": "DT_FLOAT"}}}, {"name": "ConstantFolding/StatefulPartitionedCall/decoder/gru_1/PartitionedCall_45/unstack-folded-0", "op": "Const", "attr": {"value": {"tensor": {"dtype": "DT_FLOAT", "tensorShape": {"dim": [{"size": "3072"}]}}}, "dtype": {"type": "DT_FLOAT"}}}, {"name": "StatefulPartitionedCall/decoder/gru_1/Read_136/ReadVariableOp", "op": "Const", "attr": {"value": {"tensor": {"dtype": "DT_FLOAT", "tensorShape": {"dim": [{"size": "1024"}, {"size": "3072"}]}}}, "dtype": {"type": "DT_FLOAT"}}}, {"name": "ConstantFolding/StatefulPartitionedCall/decoder/gru_1/PartitionedCall_45/unstack-folded-1", "op": "Const", "attr": {"dtype": {"type": "DT_FLOAT"}, "value": {"tensor": {"dtype": "DT_FLOAT", "tensorShape": {"dim": [{"size": "3072"}]}}}}}, {"name": "StatefulPartitionedCall/decoder/gru_1/PartitionedCall_45/time", "op": "Const", "attr": {"dtype": {"type": "DT_INT32"}, "value": {"tensor": {"dtype": "DT_INT32", "tensorShape": {}}}}}, {"name": "StatefulPartitionedCall/Const_44", "op": "Const", "attr": {"dtype": {"type": "DT_INT64"}, "value": {"tensor": {"dtype": "DT_INT64", "tensorShape": {}}}}}, {"name": "StatefulPartitionedCall/SelectV2_88/condition", "op": "Const", "attr": {"value": {"tensor": {"dtype": "DT_BOOL", "tensorShape": {"dim": [{"size": "1"}, {"size": "1"}, {"size": "2106"}]}}}, "dtype": {"type": "DT_BOOL"}}}, {"name": "StatefulPartitionedCall/SelectV2_88/t", "op": "Const", "attr": {"dtype": {"type": "DT_FLOAT"}, "value": {"tensor": {"dtype": "DT_FLOAT", "tensorShape": {}}}}}, {"name": "StatefulPartitionedCall/decoder/dense_3/Tensordot_44/Const", "op": "Const", "attr": {"value": {"tensor": {"dtype": "DT_INT32", "tensorShape": {"dim": [{"size": "1"}]}}}, "dtype": {"type": "DT_INT32"}}}, {"name": "StatefulPartitionedCall/decoder/dense_3/Tensordot_44/axes", "op": "Const", "attr": {"dtype": {"type": "DT_INT32"}, "value": {"tensor": {"dtype": "DT_INT32", "tensorShape": {"dim": [{"size": "1"}]}}}}}, {"name": "StatefulPartitionedCall/decoder/dense_3/Tensordot_44/GatherV2_1/axis", "op": "Const", "attr": {"value": {"tensor": {"dtype": "DT_INT32", "tensorShape": {}}}, "dtype": {"type": "DT_INT32"}}}, {"name": "StatefulPartitionedCall/decoder/dense_3/Tensordot_44/Const_1", "op": "Const", "attr": {"value": {"tensor": {"dtype": "DT_INT32", "tensorShape": {"dim": [{"size": "1"}]}}}, "dtype": {"type": "DT_INT32"}}}, {"name": "StatefulPartitionedCall/decoder/dense_3/Tensordot_44/ReadVariableOp", "op": "Const", "attr": {"dtype": {"type": "DT_FLOAT"}, "value": {"tensor": {"dtype": "DT_FLOAT", "tensorShape": {"dim": [{"size": "1024"}, {"size": "2106"}]}}}}}, {"name": "StatefulPartitionedCall/decoder/dense_2/Tensordot_44/Const", "op": "Const", "attr": {"dtype": {"type": "DT_INT32"}, "value": {"tensor": {"dtype": "DT_INT32", "tensorShape": {"dim": [{"size": "1"}]}}}}}, {"name": "StatefulPartitionedCall/decoder/dense_2/Tensordot_44/axes", "op": "Const", "attr": {"dtype": {"type": "DT_INT32"}, "value": {"tensor": {"dtype": "DT_INT32", "tensorShape": {"dim": [{"size": "1"}]}}}}}, {"name": "StatefulPartitionedCall/decoder/dense_2/Tensordot_44/GatherV2_1/axis", "op": "Const", "attr": {"dtype": {"type": "DT_INT32"}, "value": {"tensor": {"dtype": "DT_INT32", "tensorShape": {}}}}}, {"name": "StatefulPartitionedCall/decoder/dense_2/Tensordot_44/Const_1", "op": "Const", "attr": {"value": {"tensor": {"dtype": "DT_INT32", "tensorShape": {"dim": [{"size": "1"}]}}}, "dtype": {"type": "DT_INT32"}}}, {"name": "StatefulPartitionedCall/decoder/dense_2/Tensordot_44/ReadVariableOp", "op": "Const", "attr": {"value": {"tensor": {"dtype": "DT_FLOAT", "tensorShape": {"dim": [{"size": "2048"}, {"size": "1024"}]}}}, "dtype": {"type": "DT_FLOAT"}}}, {"name": "StatefulPartitionedCall/decoder/bahdanau_attention/additive_attention/ReadVariableOp_44", "op": "Const", "attr": {"value": {"tensor": {"dtype": "DT_FLOAT", "tensorShape": {"dim": [{"size": "1024"}]}}}, "dtype": {"type": "DT_FLOAT"}}}, {"name": "StatefulPartitionedCall/decoder/bahdanau_attention/dense/Tensordot_44/Const", "op": "Const", "attr": {"value": {"tensor": {"dtype": "DT_INT32", "tensorShape": {"dim": [{"size": "1"}]}}}, "dtype": {"type": "DT_INT32"}}}, {"name": "StatefulPartitionedCall/decoder/bahdanau_attention/dense/Tensordot_44/axes", "op": "Const", "attr": {"dtype": {"type": "DT_INT32"}, "value": {"tensor": {"dtype": "DT_INT32", "tensorShape": {"dim": [{"size": "1"}]}}}}}, {"name": "StatefulPartitionedCall/decoder/bahdanau_attention/dense/Tensordot_44/GatherV2_1/axis", "op": "Const", "attr": {"dtype": {"type": "DT_INT32"}, "value": {"tensor": {"dtype": "DT_INT32", "tensorShape": {}}}}}, {"name": "StatefulPartitionedCall/decoder/bahdanau_attention/dense/Tensordot_44/Const_1", "op": "Const", "attr": {"value": {"tensor": {"dtype": "DT_INT32", "tensorShape": {"dim": [{"size": "1"}]}}}, "dtype": {"type": "DT_INT32"}}}, {"name": "StatefulPartitionedCall/decoder/bahdanau_attention/dense/Tensordot_44/ReadVariableOp", "op": "Const", "attr": {"value": {"tensor": {"dtype": "DT_FLOAT", "tensorShape": {"dim": [{"size": "1024"}, {"size": "1024"}]}}}, "dtype": {"type": "DT_FLOAT"}}}, {"name": "StatefulPartitionedCall/decoder/bahdanau_attention/dense/Tensordot_44/free", "op": "Const", "attr": {"dtype": {"type": "DT_INT32"}, "value": {"tensor": {"dtype": "DT_INT32", "tensorShape": {"dim": [{"size": "2"}]}}}}}, {"name": "StatefulPartitionedCall/decoder/bahdanau_attention/dense/Tensordot_44/GatherV2/axis", "op": "Const", "attr": {"dtype": {"type": "DT_INT32"}, "value": {"tensor": {"dtype": "DT_INT32", "tensorShape": {}}}}}, {"name": "StatefulPartitionedCall/decoder/bahdanau_attention/dense/Tensordot_44/Const_2", "op": "Const", "attr": {"dtype": {"type": "DT_INT32"}, "value": {"tensor": {"dtype": "DT_INT32", "tensorShape": {"dim": [{"size": "1"}]}}}}}, {"name": "StatefulPartitionedCall/decoder/bahdanau_attention/dense/Tensordot_44/concat_1/axis", "op": "Const", "attr": {"value": {"tensor": {"dtype": "DT_INT32", "tensorShape": {}}}, "dtype": {"type": "DT_INT32"}}}, {"name": "StatefulPartitionedCall/decoder/bahdanau_attention/additive_attention/ExpandDims_176/dim", "op": "Const", "attr": {"dtype": {"type": "DT_INT32"}, "value": {"tensor": {"dtype": "DT_INT32", "tensorShape": {}}}}}, {"name": "StatefulPartitionedCall/decoder/bahdanau_attention/dense_1/Tensordot_44/Const", "op": "Const", "attr": {"value": {"tensor": {"dtype": "DT_INT32", "tensorShape": {"dim": [{"size": "1"}]}}}, "dtype": {"type": "DT_INT32"}}}, {"name": "StatefulPartitionedCall/decoder/bahdanau_attention/dense_1/Tensordot_44/axes", "op": "Const", "attr": {"value": {"tensor": {"dtype": "DT_INT32", "tensorShape": {"dim": [{"size": "1"}]}}}, "dtype": {"type": "DT_INT32"}}}, {"name": "StatefulPartitionedCall/decoder/bahdanau_attention/dense_1/Tensordot_44/GatherV2_1/axis", "op": "Const", "attr": {"value": {"tensor": {"dtype": "DT_INT32", "tensorShape": {}}}, "dtype": {"type": "DT_INT32"}}}, {"name": "StatefulPartitionedCall/decoder/bahdanau_attention/dense_1/Tensordot_44/Const_1", "op": "Const", "attr": {"dtype": {"type": "DT_INT32"}, "value": {"tensor": {"dtype": "DT_INT32", "tensorShape": {"dim": [{"size": "1"}]}}}}}, {"name": "StatefulPartitionedCall/decoder/bahdanau_attention/dense_1/Tensordot_44/ReadVariableOp", "op": "Const", "attr": {"value": {"tensor": {"dtype": "DT_FLOAT", "tensorShape": {"dim": [{"size": "1024"}, {"size": "1024"}]}}}, "dtype": {"type": "DT_FLOAT"}}}, {"name": "StatefulPartitionedCall/decoder/bahdanau_attention/dense_1/Tensordot_44/free", "op": "Const", "attr": {"dtype": {"type": "DT_INT32"}, "value": {"tensor": {"dtype": "DT_INT32", "tensorShape": {"dim": [{"size": "2"}]}}}}}, {"name": "StatefulPartitionedCall/decoder/bahdanau_attention/dense_1/Tensordot_44/GatherV2/axis", "op": "Const", "attr": {"value": {"tensor": {"dtype": "DT_INT32", "tensorShape": {}}}, "dtype": {"type": "DT_INT32"}}}, {"name": "StatefulPartitionedCall/decoder/bahdanau_attention/dense_1/Tensordot_44/Const_2", "op": "Const", "attr": {"dtype": {"type": "DT_INT32"}, "value": {"tensor": {"dtype": "DT_INT32", "tensorShape": {"dim": [{"size": "1"}]}}}}}, {"name": "StatefulPartitionedCall/decoder/bahdanau_attention/dense_1/Tensordot_44/concat_1/axis", "op": "Const", "attr": {"dtype": {"type": "DT_INT32"}, "value": {"tensor": {"dtype": "DT_INT32", "tensorShape": {}}}}}, {"name": "StatefulPartitionedCall/decoder/bahdanau_attention/additive_attention/ExpandDims_177/dim", "op": "Const", "attr": {"value": {"tensor": {"dtype": "DT_INT32", "tensorShape": {}}}, "dtype": {"type": "DT_INT32"}}}, {"name": "StatefulPartitionedCall/decoder/bahdanau_attention/additive_attention/Sum_44/reduction_indices", "op": "Const", "attr": {"value": {"tensor": {"dtype": "DT_INT32", "tensorShape": {}}}, "dtype": {"type": "DT_INT32"}}}, {"name": "StatefulPartitionedCall/decoder/bahdanau_attention/additive_attention/mul_133/x", "op": "Const", "attr": {"value": {"tensor": {"dtype": "DT_FLOAT", "tensorShape": {}}}, "dtype": {"type": "DT_FLOAT"}}}, {"name": "StatefulPartitionedCall/x_44", "op": "Const", "attr": {"dtype": {"type": "DT_INT64"}, "value": {"tensor": {"dtype": "DT_INT64", "tensorShape": {}}}}}, {"name": "StatefulPartitionedCall/decoder/bahdanau_attention/additive_attention/ExpandDims_178/dim", "op": "Const", "attr": {"dtype": {"type": "DT_INT32"}, "value": {"tensor": {"dtype": "DT_INT32", "tensorShape": {}}}}}, {"name": "StatefulPartitionedCall/decoder/bahdanau_attention/strided_slice_44/stack", "op": "Const", "attr": {"value": {"tensor": {"dtype": "DT_INT32", "tensorShape": {"dim": [{"size": "1"}]}}}, "dtype": {"type": "DT_INT32"}}}, {"name": "StatefulPartitionedCall/decoder/bahdanau_attention/strided_slice_44/stack_1", "op": "Const", "attr": {"dtype": {"type": "DT_INT32"}, "value": {"tensor": {"dtype": "DT_INT32", "tensorShape": {"dim": [{"size": "1"}]}}}}}, {"name": "StatefulPartitionedCall/decoder/bahdanau_attention/strided_slice_44/stack_2", "op": "Const", "attr": {"dtype": {"type": "DT_INT32"}, "value": {"tensor": {"dtype": "DT_INT32", "tensorShape": {"dim": [{"size": "1"}]}}}}}, {"name": "StatefulPartitionedCall/decoder/bahdanau_attention/ones_44/Const", "op": "Const", "attr": {"dtype": {"type": "DT_BOOL"}, "value": {"tensor": {"dtype": "DT_BOOL", "tensorShape": {}}}}}, {"name": "StatefulPartitionedCall/decoder/bahdanau_attention/additive_attention/ExpandDims_179/dim", "op": "Const", "attr": {"value": {"tensor": {"dtype": "DT_INT32", "tensorShape": {}}}, "dtype": {"type": "DT_INT32"}}}, {"name": "StatefulPartitionedCall/decoder/gru_1/PartitionedCall_44/TensorArrayV2_1/element_shape", "op": "Const", "attr": {"value": {"tensor": {"dtype": "DT_INT32", "tensorShape": {"dim": [{"size": "2"}]}}}, "dtype": {"type": "DT_INT32"}}}, {"name": "StatefulPartitionedCall/decoder/gru_1/PartitionedCall_44/TensorArrayUnstack/TensorListFromTensor/element_shape", "op": "Const", "attr": {"value": {"tensor": {"dtype": "DT_INT32", "tensorShape": {"dim": [{"size": "2"}]}}}, "dtype": {"type": "DT_INT32"}}}, {"name": "StatefulPartitionedCall/decoder/gru_1/Read_132/ReadVariableOp", "op": "Const", "attr": {"dtype": {"type": "DT_FLOAT"}, "value": {"tensor": {"dtype": "DT_FLOAT", "tensorShape": {"dim": [{"size": "256"}, {"size": "3072"}]}}}}}, {"name": "ConstantFolding/StatefulPartitionedCall/decoder/gru_1/PartitionedCall_44/unstack-folded-0", "op": "Const", "attr": {"dtype": {"type": "DT_FLOAT"}, "value": {"tensor": {"dtype": "DT_FLOAT", "tensorShape": {"dim": [{"size": "3072"}]}}}}}, {"name": "StatefulPartitionedCall/decoder/gru_1/Read_133/ReadVariableOp", "op": "Const", "attr": {"value": {"tensor": {"dtype": "DT_FLOAT", "tensorShape": {"dim": [{"size": "1024"}, {"size": "3072"}]}}}, "dtype": {"type": "DT_FLOAT"}}}, {"name": "ConstantFolding/StatefulPartitionedCall/decoder/gru_1/PartitionedCall_44/unstack-folded-1", "op": "Const", "attr": {"value": {"tensor": {"dtype": "DT_FLOAT", "tensorShape": {"dim": [{"size": "3072"}]}}}, "dtype": {"type": "DT_FLOAT"}}}, {"name": "StatefulPartitionedCall/decoder/gru_1/PartitionedCall_44/time", "op": "Const", "attr": {"dtype": {"type": "DT_INT32"}, "value": {"tensor": {"dtype": "DT_INT32", "tensorShape": {}}}}}, {"name": "StatefulPartitionedCall/Const_43", "op": "Const", "attr": {"dtype": {"type": "DT_INT64"}, "value": {"tensor": {"dtype": "DT_INT64", "tensorShape": {}}}}}, {"name": "StatefulPartitionedCall/SelectV2_86/condition", "op": "Const", "attr": {"dtype": {"type": "DT_BOOL"}, "value": {"tensor": {"dtype": "DT_BOOL", "tensorShape": {"dim": [{"size": "1"}, {"size": "1"}, {"size": "2106"}]}}}}}, {"name": "StatefulPartitionedCall/SelectV2_86/t", "op": "Const", "attr": {"value": {"tensor": {"dtype": "DT_FLOAT", "tensorShape": {}}}, "dtype": {"type": "DT_FLOAT"}}}, {"name": "StatefulPartitionedCall/decoder/dense_3/Tensordot_43/Const", "op": "Const", "attr": {"dtype": {"type": "DT_INT32"}, "value": {"tensor": {"dtype": "DT_INT32", "tensorShape": {"dim": [{"size": "1"}]}}}}}, {"name": "StatefulPartitionedCall/decoder/dense_3/Tensordot_43/axes", "op": "Const", "attr": {"value": {"tensor": {"dtype": "DT_INT32", "tensorShape": {"dim": [{"size": "1"}]}}}, "dtype": {"type": "DT_INT32"}}}, {"name": "StatefulPartitionedCall/decoder/dense_3/Tensordot_43/GatherV2_1/axis", "op": "Const", "attr": {"value": {"tensor": {"dtype": "DT_INT32", "tensorShape": {}}}, "dtype": {"type": "DT_INT32"}}}, {"name": "StatefulPartitionedCall/decoder/dense_3/Tensordot_43/Const_1", "op": "Const", "attr": {"dtype": {"type": "DT_INT32"}, "value": {"tensor": {"dtype": "DT_INT32", "tensorShape": {"dim": [{"size": "1"}]}}}}}, {"name": "StatefulPartitionedCall/decoder/dense_3/Tensordot_43/ReadVariableOp", "op": "Const", "attr": {"value": {"tensor": {"dtype": "DT_FLOAT", "tensorShape": {"dim": [{"size": "1024"}, {"size": "2106"}]}}}, "dtype": {"type": "DT_FLOAT"}}}, {"name": "StatefulPartitionedCall/decoder/dense_2/Tensordot_43/Const", "op": "Const", "attr": {"value": {"tensor": {"dtype": "DT_INT32", "tensorShape": {"dim": [{"size": "1"}]}}}, "dtype": {"type": "DT_INT32"}}}, {"name": "StatefulPartitionedCall/decoder/dense_2/Tensordot_43/axes", "op": "Const", "attr": {"value": {"tensor": {"dtype": "DT_INT32", "tensorShape": {"dim": [{"size": "1"}]}}}, "dtype": {"type": "DT_INT32"}}}, {"name": "StatefulPartitionedCall/decoder/dense_2/Tensordot_43/GatherV2_1/axis", "op": "Const", "attr": {"value": {"tensor": {"dtype": "DT_INT32", "tensorShape": {}}}, "dtype": {"type": "DT_INT32"}}}, {"name": "StatefulPartitionedCall/decoder/dense_2/Tensordot_43/Const_1", "op": "Const", "attr": {"value": {"tensor": {"dtype": "DT_INT32", "tensorShape": {"dim": [{"size": "1"}]}}}, "dtype": {"type": "DT_INT32"}}}, {"name": "StatefulPartitionedCall/decoder/dense_2/Tensordot_43/ReadVariableOp", "op": "Const", "attr": {"value": {"tensor": {"dtype": "DT_FLOAT", "tensorShape": {"dim": [{"size": "2048"}, {"size": "1024"}]}}}, "dtype": {"type": "DT_FLOAT"}}}, {"name": "StatefulPartitionedCall/decoder/bahdanau_attention/additive_attention/ReadVariableOp_43", "op": "Const", "attr": {"dtype": {"type": "DT_FLOAT"}, "value": {"tensor": {"dtype": "DT_FLOAT", "tensorShape": {"dim": [{"size": "1024"}]}}}}}, {"name": "StatefulPartitionedCall/decoder/bahdanau_attention/dense/Tensordot_43/Const", "op": "Const", "attr": {"value": {"tensor": {"dtype": "DT_INT32", "tensorShape": {"dim": [{"size": "1"}]}}}, "dtype": {"type": "DT_INT32"}}}, {"name": "StatefulPartitionedCall/decoder/bahdanau_attention/dense/Tensordot_43/axes", "op": "Const", "attr": {"dtype": {"type": "DT_INT32"}, "value": {"tensor": {"dtype": "DT_INT32", "tensorShape": {"dim": [{"size": "1"}]}}}}}, {"name": "StatefulPartitionedCall/decoder/bahdanau_attention/dense/Tensordot_43/GatherV2_1/axis", "op": "Const", "attr": {"value": {"tensor": {"dtype": "DT_INT32", "tensorShape": {}}}, "dtype": {"type": "DT_INT32"}}}, {"name": "StatefulPartitionedCall/decoder/bahdanau_attention/dense/Tensordot_43/Const_1", "op": "Const", "attr": {"value": {"tensor": {"dtype": "DT_INT32", "tensorShape": {"dim": [{"size": "1"}]}}}, "dtype": {"type": "DT_INT32"}}}, {"name": "StatefulPartitionedCall/decoder/bahdanau_attention/dense/Tensordot_43/ReadVariableOp", "op": "Const", "attr": {"dtype": {"type": "DT_FLOAT"}, "value": {"tensor": {"dtype": "DT_FLOAT", "tensorShape": {"dim": [{"size": "1024"}, {"size": "1024"}]}}}}}, {"name": "StatefulPartitionedCall/decoder/bahdanau_attention/dense/Tensordot_43/free", "op": "Const", "attr": {"value": {"tensor": {"dtype": "DT_INT32", "tensorShape": {"dim": [{"size": "2"}]}}}, "dtype": {"type": "DT_INT32"}}}, {"name": "StatefulPartitionedCall/decoder/bahdanau_attention/dense/Tensordot_43/GatherV2/axis", "op": "Const", "attr": {"value": {"tensor": {"dtype": "DT_INT32", "tensorShape": {}}}, "dtype": {"type": "DT_INT32"}}}, {"name": "StatefulPartitionedCall/decoder/bahdanau_attention/dense/Tensordot_43/Const_2", "op": "Const", "attr": {"value": {"tensor": {"dtype": "DT_INT32", "tensorShape": {"dim": [{"size": "1"}]}}}, "dtype": {"type": "DT_INT32"}}}, {"name": "StatefulPartitionedCall/decoder/bahdanau_attention/dense/Tensordot_43/concat_1/axis", "op": "Const", "attr": {"dtype": {"type": "DT_INT32"}, "value": {"tensor": {"dtype": "DT_INT32", "tensorShape": {}}}}}, {"name": "StatefulPartitionedCall/decoder/bahdanau_attention/additive_attention/ExpandDims_172/dim", "op": "Const", "attr": {"dtype": {"type": "DT_INT32"}, "value": {"tensor": {"dtype": "DT_INT32", "tensorShape": {}}}}}, {"name": "StatefulPartitionedCall/decoder/bahdanau_attention/dense_1/Tensordot_43/Const", "op": "Const", "attr": {"dtype": {"type": "DT_INT32"}, "value": {"tensor": {"dtype": "DT_INT32", "tensorShape": {"dim": [{"size": "1"}]}}}}}, {"name": "StatefulPartitionedCall/decoder/bahdanau_attention/dense_1/Tensordot_43/axes", "op": "Const", "attr": {"value": {"tensor": {"dtype": "DT_INT32", "tensorShape": {"dim": [{"size": "1"}]}}}, "dtype": {"type": "DT_INT32"}}}, {"name": "StatefulPartitionedCall/decoder/bahdanau_attention/dense_1/Tensordot_43/GatherV2_1/axis", "op": "Const", "attr": {"value": {"tensor": {"dtype": "DT_INT32", "tensorShape": {}}}, "dtype": {"type": "DT_INT32"}}}, {"name": "StatefulPartitionedCall/decoder/bahdanau_attention/dense_1/Tensordot_43/Const_1", "op": "Const", "attr": {"dtype": {"type": "DT_INT32"}, "value": {"tensor": {"dtype": "DT_INT32", "tensorShape": {"dim": [{"size": "1"}]}}}}}, {"name": "StatefulPartitionedCall/decoder/bahdanau_attention/dense_1/Tensordot_43/ReadVariableOp", "op": "Const", "attr": {"dtype": {"type": "DT_FLOAT"}, "value": {"tensor": {"dtype": "DT_FLOAT", "tensorShape": {"dim": [{"size": "1024"}, {"size": "1024"}]}}}}}, {"name": "StatefulPartitionedCall/decoder/bahdanau_attention/dense_1/Tensordot_43/free", "op": "Const", "attr": {"value": {"tensor": {"dtype": "DT_INT32", "tensorShape": {"dim": [{"size": "2"}]}}}, "dtype": {"type": "DT_INT32"}}}, {"name": "StatefulPartitionedCall/decoder/bahdanau_attention/dense_1/Tensordot_43/GatherV2/axis", "op": "Const", "attr": {"value": {"tensor": {"dtype": "DT_INT32", "tensorShape": {}}}, "dtype": {"type": "DT_INT32"}}}, {"name": "StatefulPartitionedCall/decoder/bahdanau_attention/dense_1/Tensordot_43/Const_2", "op": "Const", "attr": {"dtype": {"type": "DT_INT32"}, "value": {"tensor": {"dtype": "DT_INT32", "tensorShape": {"dim": [{"size": "1"}]}}}}}, {"name": "StatefulPartitionedCall/decoder/bahdanau_attention/dense_1/Tensordot_43/concat_1/axis", "op": "Const", "attr": {"dtype": {"type": "DT_INT32"}, "value": {"tensor": {"dtype": "DT_INT32", "tensorShape": {}}}}}, {"name": "StatefulPartitionedCall/decoder/bahdanau_attention/additive_attention/ExpandDims_173/dim", "op": "Const", "attr": {"dtype": {"type": "DT_INT32"}, "value": {"tensor": {"dtype": "DT_INT32", "tensorShape": {}}}}}, {"name": "StatefulPartitionedCall/decoder/bahdanau_attention/additive_attention/Sum_43/reduction_indices", "op": "Const", "attr": {"dtype": {"type": "DT_INT32"}, "value": {"tensor": {"dtype": "DT_INT32", "tensorShape": {}}}}}, {"name": "StatefulPartitionedCall/decoder/bahdanau_attention/additive_attention/mul_130/x", "op": "Const", "attr": {"dtype": {"type": "DT_FLOAT"}, "value": {"tensor": {"dtype": "DT_FLOAT", "tensorShape": {}}}}}, {"name": "StatefulPartitionedCall/x_43", "op": "Const", "attr": {"value": {"tensor": {"dtype": "DT_INT64", "tensorShape": {}}}, "dtype": {"type": "DT_INT64"}}}, {"name": "StatefulPartitionedCall/decoder/bahdanau_attention/additive_attention/ExpandDims_174/dim", "op": "Const", "attr": {"value": {"tensor": {"dtype": "DT_INT32", "tensorShape": {}}}, "dtype": {"type": "DT_INT32"}}}, {"name": "StatefulPartitionedCall/decoder/bahdanau_attention/strided_slice_43/stack", "op": "Const", "attr": {"value": {"tensor": {"dtype": "DT_INT32", "tensorShape": {"dim": [{"size": "1"}]}}}, "dtype": {"type": "DT_INT32"}}}, {"name": "StatefulPartitionedCall/decoder/bahdanau_attention/strided_slice_43/stack_1", "op": "Const", "attr": {"dtype": {"type": "DT_INT32"}, "value": {"tensor": {"dtype": "DT_INT32", "tensorShape": {"dim": [{"size": "1"}]}}}}}, {"name": "StatefulPartitionedCall/decoder/bahdanau_attention/strided_slice_43/stack_2", "op": "Const", "attr": {"dtype": {"type": "DT_INT32"}, "value": {"tensor": {"dtype": "DT_INT32", "tensorShape": {"dim": [{"size": "1"}]}}}}}, {"name": "StatefulPartitionedCall/decoder/bahdanau_attention/ones_43/Const", "op": "Const", "attr": {"value": {"tensor": {"dtype": "DT_BOOL", "tensorShape": {}}}, "dtype": {"type": "DT_BOOL"}}}, {"name": "StatefulPartitionedCall/decoder/bahdanau_attention/additive_attention/ExpandDims_175/dim", "op": "Const", "attr": {"value": {"tensor": {"dtype": "DT_INT32", "tensorShape": {}}}, "dtype": {"type": "DT_INT32"}}}, {"name": "StatefulPartitionedCall/decoder/gru_1/PartitionedCall_43/TensorArrayV2_1/element_shape", "op": "Const", "attr": {"dtype": {"type": "DT_INT32"}, "value": {"tensor": {"dtype": "DT_INT32", "tensorShape": {"dim": [{"size": "2"}]}}}}}, {"name": "StatefulPartitionedCall/decoder/gru_1/PartitionedCall_43/TensorArrayUnstack/TensorListFromTensor/element_shape", "op": "Const", "attr": {"value": {"tensor": {"dtype": "DT_INT32", "tensorShape": {"dim": [{"size": "2"}]}}}, "dtype": {"type": "DT_INT32"}}}, {"name": "StatefulPartitionedCall/decoder/gru_1/Read_129/ReadVariableOp", "op": "Const", "attr": {"dtype": {"type": "DT_FLOAT"}, "value": {"tensor": {"dtype": "DT_FLOAT", "tensorShape": {"dim": [{"size": "256"}, {"size": "3072"}]}}}}}, {"name": "ConstantFolding/StatefulPartitionedCall/decoder/gru_1/PartitionedCall_43/unstack-folded-0", "op": "Const", "attr": {"value": {"tensor": {"dtype": "DT_FLOAT", "tensorShape": {"dim": [{"size": "3072"}]}}}, "dtype": {"type": "DT_FLOAT"}}}, {"name": "StatefulPartitionedCall/decoder/gru_1/Read_130/ReadVariableOp", "op": "Const", "attr": {"value": {"tensor": {"dtype": "DT_FLOAT", "tensorShape": {"dim": [{"size": "1024"}, {"size": "3072"}]}}}, "dtype": {"type": "DT_FLOAT"}}}, {"name": "ConstantFolding/StatefulPartitionedCall/decoder/gru_1/PartitionedCall_43/unstack-folded-1", "op": "Const", "attr": {"value": {"tensor": {"dtype": "DT_FLOAT", "tensorShape": {"dim": [{"size": "3072"}]}}}, "dtype": {"type": "DT_FLOAT"}}}, {"name": "StatefulPartitionedCall/decoder/gru_1/PartitionedCall_43/time", "op": "Const", "attr": {"dtype": {"type": "DT_INT32"}, "value": {"tensor": {"dtype": "DT_INT32", "tensorShape": {}}}}}, {"name": "StatefulPartitionedCall/Const_42", "op": "Const", "attr": {"value": {"tensor": {"dtype": "DT_INT64", "tensorShape": {}}}, "dtype": {"type": "DT_INT64"}}}, {"name": "StatefulPartitionedCall/SelectV2_84/condition", "op": "Const", "attr": {"dtype": {"type": "DT_BOOL"}, "value": {"tensor": {"dtype": "DT_BOOL", "tensorShape": {"dim": [{"size": "1"}, {"size": "1"}, {"size": "2106"}]}}}}}, {"name": "StatefulPartitionedCall/SelectV2_84/t", "op": "Const", "attr": {"value": {"tensor": {"dtype": "DT_FLOAT", "tensorShape": {}}}, "dtype": {"type": "DT_FLOAT"}}}, {"name": "StatefulPartitionedCall/decoder/dense_3/Tensordot_42/Const", "op": "Const", "attr": {"dtype": {"type": "DT_INT32"}, "value": {"tensor": {"dtype": "DT_INT32", "tensorShape": {"dim": [{"size": "1"}]}}}}}, {"name": "StatefulPartitionedCall/decoder/dense_3/Tensordot_42/axes", "op": "Const", "attr": {"dtype": {"type": "DT_INT32"}, "value": {"tensor": {"dtype": "DT_INT32", "tensorShape": {"dim": [{"size": "1"}]}}}}}, {"name": "StatefulPartitionedCall/decoder/dense_3/Tensordot_42/GatherV2_1/axis", "op": "Const", "attr": {"value": {"tensor": {"dtype": "DT_INT32", "tensorShape": {}}}, "dtype": {"type": "DT_INT32"}}}, {"name": "StatefulPartitionedCall/decoder/dense_3/Tensordot_42/Const_1", "op": "Const", "attr": {"value": {"tensor": {"dtype": "DT_INT32", "tensorShape": {"dim": [{"size": "1"}]}}}, "dtype": {"type": "DT_INT32"}}}, {"name": "StatefulPartitionedCall/decoder/dense_3/Tensordot_42/ReadVariableOp", "op": "Const", "attr": {"dtype": {"type": "DT_FLOAT"}, "value": {"tensor": {"dtype": "DT_FLOAT", "tensorShape": {"dim": [{"size": "1024"}, {"size": "2106"}]}}}}}, {"name": "StatefulPartitionedCall/decoder/dense_2/Tensordot_42/Const", "op": "Const", "attr": {"dtype": {"type": "DT_INT32"}, "value": {"tensor": {"dtype": "DT_INT32", "tensorShape": {"dim": [{"size": "1"}]}}}}}, {"name": "StatefulPartitionedCall/decoder/dense_2/Tensordot_42/axes", "op": "Const", "attr": {"dtype": {"type": "DT_INT32"}, "value": {"tensor": {"dtype": "DT_INT32", "tensorShape": {"dim": [{"size": "1"}]}}}}}, {"name": "StatefulPartitionedCall/decoder/dense_2/Tensordot_42/GatherV2_1/axis", "op": "Const", "attr": {"value": {"tensor": {"dtype": "DT_INT32", "tensorShape": {}}}, "dtype": {"type": "DT_INT32"}}}, {"name": "StatefulPartitionedCall/decoder/dense_2/Tensordot_42/Const_1", "op": "Const", "attr": {"value": {"tensor": {"dtype": "DT_INT32", "tensorShape": {"dim": [{"size": "1"}]}}}, "dtype": {"type": "DT_INT32"}}}, {"name": "StatefulPartitionedCall/decoder/dense_2/Tensordot_42/ReadVariableOp", "op": "Const", "attr": {"dtype": {"type": "DT_FLOAT"}, "value": {"tensor": {"dtype": "DT_FLOAT", "tensorShape": {"dim": [{"size": "2048"}, {"size": "1024"}]}}}}}, {"name": "StatefulPartitionedCall/decoder/bahdanau_attention/additive_attention/ReadVariableOp_42", "op": "Const", "attr": {"value": {"tensor": {"dtype": "DT_FLOAT", "tensorShape": {"dim": [{"size": "1024"}]}}}, "dtype": {"type": "DT_FLOAT"}}}, {"name": "StatefulPartitionedCall/decoder/bahdanau_attention/dense/Tensordot_42/Const", "op": "Const", "attr": {"value": {"tensor": {"dtype": "DT_INT32", "tensorShape": {"dim": [{"size": "1"}]}}}, "dtype": {"type": "DT_INT32"}}}, {"name": "StatefulPartitionedCall/decoder/bahdanau_attention/dense/Tensordot_42/axes", "op": "Const", "attr": {"dtype": {"type": "DT_INT32"}, "value": {"tensor": {"dtype": "DT_INT32", "tensorShape": {"dim": [{"size": "1"}]}}}}}, {"name": "StatefulPartitionedCall/decoder/bahdanau_attention/dense/Tensordot_42/GatherV2_1/axis", "op": "Const", "attr": {"value": {"tensor": {"dtype": "DT_INT32", "tensorShape": {}}}, "dtype": {"type": "DT_INT32"}}}, {"name": "StatefulPartitionedCall/decoder/bahdanau_attention/dense/Tensordot_42/Const_1", "op": "Const", "attr": {"value": {"tensor": {"dtype": "DT_INT32", "tensorShape": {"dim": [{"size": "1"}]}}}, "dtype": {"type": "DT_INT32"}}}, {"name": "StatefulPartitionedCall/decoder/bahdanau_attention/dense/Tensordot_42/ReadVariableOp", "op": "Const", "attr": {"value": {"tensor": {"dtype": "DT_FLOAT", "tensorShape": {"dim": [{"size": "1024"}, {"size": "1024"}]}}}, "dtype": {"type": "DT_FLOAT"}}}, {"name": "StatefulPartitionedCall/decoder/bahdanau_attention/dense/Tensordot_42/free", "op": "Const", "attr": {"value": {"tensor": {"dtype": "DT_INT32", "tensorShape": {"dim": [{"size": "2"}]}}}, "dtype": {"type": "DT_INT32"}}}, {"name": "StatefulPartitionedCall/decoder/bahdanau_attention/dense/Tensordot_42/GatherV2/axis", "op": "Const", "attr": {"value": {"tensor": {"dtype": "DT_INT32", "tensorShape": {}}}, "dtype": {"type": "DT_INT32"}}}, {"name": "StatefulPartitionedCall/decoder/bahdanau_attention/dense/Tensordot_42/Const_2", "op": "Const", "attr": {"value": {"tensor": {"dtype": "DT_INT32", "tensorShape": {"dim": [{"size": "1"}]}}}, "dtype": {"type": "DT_INT32"}}}, {"name": "StatefulPartitionedCall/decoder/bahdanau_attention/dense/Tensordot_42/concat_1/axis", "op": "Const", "attr": {"value": {"tensor": {"dtype": "DT_INT32", "tensorShape": {}}}, "dtype": {"type": "DT_INT32"}}}, {"name": "StatefulPartitionedCall/decoder/bahdanau_attention/additive_attention/ExpandDims_168/dim", "op": "Const", "attr": {"value": {"tensor": {"dtype": "DT_INT32", "tensorShape": {}}}, "dtype": {"type": "DT_INT32"}}}, {"name": "StatefulPartitionedCall/decoder/bahdanau_attention/dense_1/Tensordot_42/Const", "op": "Const", "attr": {"dtype": {"type": "DT_INT32"}, "value": {"tensor": {"dtype": "DT_INT32", "tensorShape": {"dim": [{"size": "1"}]}}}}}, {"name": "StatefulPartitionedCall/decoder/bahdanau_attention/dense_1/Tensordot_42/axes", "op": "Const", "attr": {"dtype": {"type": "DT_INT32"}, "value": {"tensor": {"dtype": "DT_INT32", "tensorShape": {"dim": [{"size": "1"}]}}}}}, {"name": "StatefulPartitionedCall/decoder/bahdanau_attention/dense_1/Tensordot_42/GatherV2_1/axis", "op": "Const", "attr": {"value": {"tensor": {"dtype": "DT_INT32", "tensorShape": {}}}, "dtype": {"type": "DT_INT32"}}}, {"name": "StatefulPartitionedCall/decoder/bahdanau_attention/dense_1/Tensordot_42/Const_1", "op": "Const", "attr": {"value": {"tensor": {"dtype": "DT_INT32", "tensorShape": {"dim": [{"size": "1"}]}}}, "dtype": {"type": "DT_INT32"}}}, {"name": "StatefulPartitionedCall/decoder/bahdanau_attention/dense_1/Tensordot_42/ReadVariableOp", "op": "Const", "attr": {"value": {"tensor": {"dtype": "DT_FLOAT", "tensorShape": {"dim": [{"size": "1024"}, {"size": "1024"}]}}}, "dtype": {"type": "DT_FLOAT"}}}, {"name": "StatefulPartitionedCall/decoder/bahdanau_attention/dense_1/Tensordot_42/free", "op": "Const", "attr": {"dtype": {"type": "DT_INT32"}, "value": {"tensor": {"dtype": "DT_INT32", "tensorShape": {"dim": [{"size": "2"}]}}}}}, {"name": "StatefulPartitionedCall/decoder/bahdanau_attention/dense_1/Tensordot_42/GatherV2/axis", "op": "Const", "attr": {"dtype": {"type": "DT_INT32"}, "value": {"tensor": {"dtype": "DT_INT32", "tensorShape": {}}}}}, {"name": "StatefulPartitionedCall/decoder/bahdanau_attention/dense_1/Tensordot_42/Const_2", "op": "Const", "attr": {"value": {"tensor": {"dtype": "DT_INT32", "tensorShape": {"dim": [{"size": "1"}]}}}, "dtype": {"type": "DT_INT32"}}}, {"name": "StatefulPartitionedCall/decoder/bahdanau_attention/dense_1/Tensordot_42/concat_1/axis", "op": "Const", "attr": {"dtype": {"type": "DT_INT32"}, "value": {"tensor": {"dtype": "DT_INT32", "tensorShape": {}}}}}, {"name": "StatefulPartitionedCall/decoder/bahdanau_attention/additive_attention/ExpandDims_169/dim", "op": "Const", "attr": {"value": {"tensor": {"dtype": "DT_INT32", "tensorShape": {}}}, "dtype": {"type": "DT_INT32"}}}, {"name": "StatefulPartitionedCall/decoder/bahdanau_attention/additive_attention/Sum_42/reduction_indices", "op": "Const", "attr": {"value": {"tensor": {"dtype": "DT_INT32", "tensorShape": {}}}, "dtype": {"type": "DT_INT32"}}}, {"name": "StatefulPartitionedCall/decoder/bahdanau_attention/additive_attention/mul_127/x", "op": "Const", "attr": {"value": {"tensor": {"dtype": "DT_FLOAT", "tensorShape": {}}}, "dtype": {"type": "DT_FLOAT"}}}, {"name": "StatefulPartitionedCall/x_42", "op": "Const", "attr": {"dtype": {"type": "DT_INT64"}, "value": {"tensor": {"dtype": "DT_INT64", "tensorShape": {}}}}}, {"name": "StatefulPartitionedCall/decoder/bahdanau_attention/additive_attention/ExpandDims_170/dim", "op": "Const", "attr": {"dtype": {"type": "DT_INT32"}, "value": {"tensor": {"dtype": "DT_INT32", "tensorShape": {}}}}}, {"name": "StatefulPartitionedCall/decoder/bahdanau_attention/strided_slice_42/stack", "op": "Const", "attr": {"dtype": {"type": "DT_INT32"}, "value": {"tensor": {"dtype": "DT_INT32", "tensorShape": {"dim": [{"size": "1"}]}}}}}, {"name": "StatefulPartitionedCall/decoder/bahdanau_attention/strided_slice_42/stack_1", "op": "Const", "attr": {"dtype": {"type": "DT_INT32"}, "value": {"tensor": {"dtype": "DT_INT32", "tensorShape": {"dim": [{"size": "1"}]}}}}}, {"name": "StatefulPartitionedCall/decoder/bahdanau_attention/strided_slice_42/stack_2", "op": "Const", "attr": {"value": {"tensor": {"dtype": "DT_INT32", "tensorShape": {"dim": [{"size": "1"}]}}}, "dtype": {"type": "DT_INT32"}}}, {"name": "StatefulPartitionedCall/decoder/bahdanau_attention/ones_42/Const", "op": "Const", "attr": {"dtype": {"type": "DT_BOOL"}, "value": {"tensor": {"dtype": "DT_BOOL", "tensorShape": {}}}}}, {"name": "StatefulPartitionedCall/decoder/bahdanau_attention/additive_attention/ExpandDims_171/dim", "op": "Const", "attr": {"value": {"tensor": {"dtype": "DT_INT32", "tensorShape": {}}}, "dtype": {"type": "DT_INT32"}}}, {"name": "StatefulPartitionedCall/decoder/gru_1/PartitionedCall_42/TensorArrayV2_1/element_shape", "op": "Const", "attr": {"dtype": {"type": "DT_INT32"}, "value": {"tensor": {"dtype": "DT_INT32", "tensorShape": {"dim": [{"size": "2"}]}}}}}, {"name": "StatefulPartitionedCall/decoder/gru_1/PartitionedCall_42/TensorArrayUnstack/TensorListFromTensor/element_shape", "op": "Const", "attr": {"value": {"tensor": {"dtype": "DT_INT32", "tensorShape": {"dim": [{"size": "2"}]}}}, "dtype": {"type": "DT_INT32"}}}, {"name": "StatefulPartitionedCall/decoder/gru_1/Read_126/ReadVariableOp", "op": "Const", "attr": {"value": {"tensor": {"dtype": "DT_FLOAT", "tensorShape": {"dim": [{"size": "256"}, {"size": "3072"}]}}}, "dtype": {"type": "DT_FLOAT"}}}, {"name": "ConstantFolding/StatefulPartitionedCall/decoder/gru_1/PartitionedCall_42/unstack-folded-0", "op": "Const", "attr": {"value": {"tensor": {"dtype": "DT_FLOAT", "tensorShape": {"dim": [{"size": "3072"}]}}}, "dtype": {"type": "DT_FLOAT"}}}, {"name": "StatefulPartitionedCall/decoder/gru_1/Read_127/ReadVariableOp", "op": "Const", "attr": {"value": {"tensor": {"dtype": "DT_FLOAT", "tensorShape": {"dim": [{"size": "1024"}, {"size": "3072"}]}}}, "dtype": {"type": "DT_FLOAT"}}}, {"name": "ConstantFolding/StatefulPartitionedCall/decoder/gru_1/PartitionedCall_42/unstack-folded-1", "op": "Const", "attr": {"dtype": {"type": "DT_FLOAT"}, "value": {"tensor": {"dtype": "DT_FLOAT", "tensorShape": {"dim": [{"size": "3072"}]}}}}}, {"name": "StatefulPartitionedCall/decoder/gru_1/PartitionedCall_42/time", "op": "Const", "attr": {"value": {"tensor": {"dtype": "DT_INT32", "tensorShape": {}}}, "dtype": {"type": "DT_INT32"}}}, {"name": "StatefulPartitionedCall/Const_41", "op": "Const", "attr": {"value": {"tensor": {"dtype": "DT_INT64", "tensorShape": {}}}, "dtype": {"type": "DT_INT64"}}}, {"name": "StatefulPartitionedCall/SelectV2_82/condition", "op": "Const", "attr": {"value": {"tensor": {"dtype": "DT_BOOL", "tensorShape": {"dim": [{"size": "1"}, {"size": "1"}, {"size": "2106"}]}}}, "dtype": {"type": "DT_BOOL"}}}, {"name": "StatefulPartitionedCall/SelectV2_82/t", "op": "Const", "attr": {"value": {"tensor": {"dtype": "DT_FLOAT", "tensorShape": {}}}, "dtype": {"type": "DT_FLOAT"}}}, {"name": "StatefulPartitionedCall/decoder/dense_3/Tensordot_41/Const", "op": "Const", "attr": {"dtype": {"type": "DT_INT32"}, "value": {"tensor": {"dtype": "DT_INT32", "tensorShape": {"dim": [{"size": "1"}]}}}}}, {"name": "StatefulPartitionedCall/decoder/dense_3/Tensordot_41/axes", "op": "Const", "attr": {"value": {"tensor": {"dtype": "DT_INT32", "tensorShape": {"dim": [{"size": "1"}]}}}, "dtype": {"type": "DT_INT32"}}}, {"name": "StatefulPartitionedCall/decoder/dense_3/Tensordot_41/GatherV2_1/axis", "op": "Const", "attr": {"dtype": {"type": "DT_INT32"}, "value": {"tensor": {"dtype": "DT_INT32", "tensorShape": {}}}}}, {"name": "StatefulPartitionedCall/decoder/dense_3/Tensordot_41/Const_1", "op": "Const", "attr": {"dtype": {"type": "DT_INT32"}, "value": {"tensor": {"dtype": "DT_INT32", "tensorShape": {"dim": [{"size": "1"}]}}}}}, {"name": "StatefulPartitionedCall/decoder/dense_3/Tensordot_41/ReadVariableOp", "op": "Const", "attr": {"value": {"tensor": {"dtype": "DT_FLOAT", "tensorShape": {"dim": [{"size": "1024"}, {"size": "2106"}]}}}, "dtype": {"type": "DT_FLOAT"}}}, {"name": "StatefulPartitionedCall/decoder/dense_2/Tensordot_41/Const", "op": "Const", "attr": {"dtype": {"type": "DT_INT32"}, "value": {"tensor": {"dtype": "DT_INT32", "tensorShape": {"dim": [{"size": "1"}]}}}}}, {"name": "StatefulPartitionedCall/decoder/dense_2/Tensordot_41/axes", "op": "Const", "attr": {"dtype": {"type": "DT_INT32"}, "value": {"tensor": {"dtype": "DT_INT32", "tensorShape": {"dim": [{"size": "1"}]}}}}}, {"name": "StatefulPartitionedCall/decoder/dense_2/Tensordot_41/GatherV2_1/axis", "op": "Const", "attr": {"dtype": {"type": "DT_INT32"}, "value": {"tensor": {"dtype": "DT_INT32", "tensorShape": {}}}}}, {"name": "StatefulPartitionedCall/decoder/dense_2/Tensordot_41/Const_1", "op": "Const", "attr": {"dtype": {"type": "DT_INT32"}, "value": {"tensor": {"dtype": "DT_INT32", "tensorShape": {"dim": [{"size": "1"}]}}}}}, {"name": "StatefulPartitionedCall/decoder/dense_2/Tensordot_41/ReadVariableOp", "op": "Const", "attr": {"dtype": {"type": "DT_FLOAT"}, "value": {"tensor": {"dtype": "DT_FLOAT", "tensorShape": {"dim": [{"size": "2048"}, {"size": "1024"}]}}}}}, {"name": "StatefulPartitionedCall/decoder/bahdanau_attention/additive_attention/ReadVariableOp_41", "op": "Const", "attr": {"dtype": {"type": "DT_FLOAT"}, "value": {"tensor": {"dtype": "DT_FLOAT", "tensorShape": {"dim": [{"size": "1024"}]}}}}}, {"name": "StatefulPartitionedCall/decoder/bahdanau_attention/dense/Tensordot_41/Const", "op": "Const", "attr": {"dtype": {"type": "DT_INT32"}, "value": {"tensor": {"dtype": "DT_INT32", "tensorShape": {"dim": [{"size": "1"}]}}}}}, {"name": "StatefulPartitionedCall/decoder/bahdanau_attention/dense/Tensordot_41/axes", "op": "Const", "attr": {"value": {"tensor": {"dtype": "DT_INT32", "tensorShape": {"dim": [{"size": "1"}]}}}, "dtype": {"type": "DT_INT32"}}}, {"name": "StatefulPartitionedCall/decoder/bahdanau_attention/dense/Tensordot_41/GatherV2_1/axis", "op": "Const", "attr": {"dtype": {"type": "DT_INT32"}, "value": {"tensor": {"dtype": "DT_INT32", "tensorShape": {}}}}}, {"name": "StatefulPartitionedCall/decoder/bahdanau_attention/dense/Tensordot_41/Const_1", "op": "Const", "attr": {"value": {"tensor": {"dtype": "DT_INT32", "tensorShape": {"dim": [{"size": "1"}]}}}, "dtype": {"type": "DT_INT32"}}}, {"name": "StatefulPartitionedCall/decoder/bahdanau_attention/dense/Tensordot_41/ReadVariableOp", "op": "Const", "attr": {"value": {"tensor": {"dtype": "DT_FLOAT", "tensorShape": {"dim": [{"size": "1024"}, {"size": "1024"}]}}}, "dtype": {"type": "DT_FLOAT"}}}, {"name": "StatefulPartitionedCall/decoder/bahdanau_attention/dense/Tensordot_41/free", "op": "Const", "attr": {"dtype": {"type": "DT_INT32"}, "value": {"tensor": {"dtype": "DT_INT32", "tensorShape": {"dim": [{"size": "2"}]}}}}}, {"name": "StatefulPartitionedCall/decoder/bahdanau_attention/dense/Tensordot_41/GatherV2/axis", "op": "Const", "attr": {"dtype": {"type": "DT_INT32"}, "value": {"tensor": {"dtype": "DT_INT32", "tensorShape": {}}}}}, {"name": "StatefulPartitionedCall/decoder/bahdanau_attention/dense/Tensordot_41/Const_2", "op": "Const", "attr": {"value": {"tensor": {"dtype": "DT_INT32", "tensorShape": {"dim": [{"size": "1"}]}}}, "dtype": {"type": "DT_INT32"}}}, {"name": "StatefulPartitionedCall/decoder/bahdanau_attention/dense/Tensordot_41/concat_1/axis", "op": "Const", "attr": {"dtype": {"type": "DT_INT32"}, "value": {"tensor": {"dtype": "DT_INT32", "tensorShape": {}}}}}, {"name": "StatefulPartitionedCall/decoder/bahdanau_attention/additive_attention/ExpandDims_164/dim", "op": "Const", "attr": {"dtype": {"type": "DT_INT32"}, "value": {"tensor": {"dtype": "DT_INT32", "tensorShape": {}}}}}, {"name": "StatefulPartitionedCall/decoder/bahdanau_attention/dense_1/Tensordot_41/Const", "op": "Const", "attr": {"dtype": {"type": "DT_INT32"}, "value": {"tensor": {"dtype": "DT_INT32", "tensorShape": {"dim": [{"size": "1"}]}}}}}, {"name": "StatefulPartitionedCall/decoder/bahdanau_attention/dense_1/Tensordot_41/axes", "op": "Const", "attr": {"dtype": {"type": "DT_INT32"}, "value": {"tensor": {"dtype": "DT_INT32", "tensorShape": {"dim": [{"size": "1"}]}}}}}, {"name": "StatefulPartitionedCall/decoder/bahdanau_attention/dense_1/Tensordot_41/GatherV2_1/axis", "op": "Const", "attr": {"value": {"tensor": {"dtype": "DT_INT32", "tensorShape": {}}}, "dtype": {"type": "DT_INT32"}}}, {"name": "StatefulPartitionedCall/decoder/bahdanau_attention/dense_1/Tensordot_41/Const_1", "op": "Const", "attr": {"value": {"tensor": {"dtype": "DT_INT32", "tensorShape": {"dim": [{"size": "1"}]}}}, "dtype": {"type": "DT_INT32"}}}, {"name": "StatefulPartitionedCall/decoder/bahdanau_attention/dense_1/Tensordot_41/ReadVariableOp", "op": "Const", "attr": {"value": {"tensor": {"dtype": "DT_FLOAT", "tensorShape": {"dim": [{"size": "1024"}, {"size": "1024"}]}}}, "dtype": {"type": "DT_FLOAT"}}}, {"name": "StatefulPartitionedCall/decoder/bahdanau_attention/dense_1/Tensordot_41/free", "op": "Const", "attr": {"value": {"tensor": {"dtype": "DT_INT32", "tensorShape": {"dim": [{"size": "2"}]}}}, "dtype": {"type": "DT_INT32"}}}, {"name": "StatefulPartitionedCall/decoder/bahdanau_attention/dense_1/Tensordot_41/GatherV2/axis", "op": "Const", "attr": {"dtype": {"type": "DT_INT32"}, "value": {"tensor": {"dtype": "DT_INT32", "tensorShape": {}}}}}, {"name": "StatefulPartitionedCall/decoder/bahdanau_attention/dense_1/Tensordot_41/Const_2", "op": "Const", "attr": {"dtype": {"type": "DT_INT32"}, "value": {"tensor": {"dtype": "DT_INT32", "tensorShape": {"dim": [{"size": "1"}]}}}}}, {"name": "StatefulPartitionedCall/decoder/bahdanau_attention/dense_1/Tensordot_41/concat_1/axis", "op": "Const", "attr": {"dtype": {"type": "DT_INT32"}, "value": {"tensor": {"dtype": "DT_INT32", "tensorShape": {}}}}}, {"name": "StatefulPartitionedCall/decoder/bahdanau_attention/additive_attention/ExpandDims_165/dim", "op": "Const", "attr": {"value": {"tensor": {"dtype": "DT_INT32", "tensorShape": {}}}, "dtype": {"type": "DT_INT32"}}}, {"name": "StatefulPartitionedCall/decoder/bahdanau_attention/additive_attention/Sum_41/reduction_indices", "op": "Const", "attr": {"dtype": {"type": "DT_INT32"}, "value": {"tensor": {"dtype": "DT_INT32", "tensorShape": {}}}}}, {"name": "StatefulPartitionedCall/decoder/bahdanau_attention/additive_attention/mul_124/x", "op": "Const", "attr": {"value": {"tensor": {"dtype": "DT_FLOAT", "tensorShape": {}}}, "dtype": {"type": "DT_FLOAT"}}}, {"name": "StatefulPartitionedCall/x_41", "op": "Const", "attr": {"value": {"tensor": {"dtype": "DT_INT64", "tensorShape": {}}}, "dtype": {"type": "DT_INT64"}}}, {"name": "StatefulPartitionedCall/decoder/bahdanau_attention/additive_attention/ExpandDims_166/dim", "op": "Const", "attr": {"value": {"tensor": {"dtype": "DT_INT32", "tensorShape": {}}}, "dtype": {"type": "DT_INT32"}}}, {"name": "StatefulPartitionedCall/decoder/bahdanau_attention/strided_slice_41/stack", "op": "Const", "attr": {"value": {"tensor": {"dtype": "DT_INT32", "tensorShape": {"dim": [{"size": "1"}]}}}, "dtype": {"type": "DT_INT32"}}}, {"name": "StatefulPartitionedCall/decoder/bahdanau_attention/strided_slice_41/stack_1", "op": "Const", "attr": {"value": {"tensor": {"dtype": "DT_INT32", "tensorShape": {"dim": [{"size": "1"}]}}}, "dtype": {"type": "DT_INT32"}}}, {"name": "StatefulPartitionedCall/decoder/bahdanau_attention/strided_slice_41/stack_2", "op": "Const", "attr": {"value": {"tensor": {"dtype": "DT_INT32", "tensorShape": {"dim": [{"size": "1"}]}}}, "dtype": {"type": "DT_INT32"}}}, {"name": "StatefulPartitionedCall/decoder/bahdanau_attention/ones_41/Const", "op": "Const", "attr": {"dtype": {"type": "DT_BOOL"}, "value": {"tensor": {"dtype": "DT_BOOL", "tensorShape": {}}}}}, {"name": "StatefulPartitionedCall/decoder/bahdanau_attention/additive_attention/ExpandDims_167/dim", "op": "Const", "attr": {"dtype": {"type": "DT_INT32"}, "value": {"tensor": {"dtype": "DT_INT32", "tensorShape": {}}}}}, {"name": "StatefulPartitionedCall/decoder/gru_1/PartitionedCall_41/TensorArrayV2_1/element_shape", "op": "Const", "attr": {"value": {"tensor": {"dtype": "DT_INT32", "tensorShape": {"dim": [{"size": "2"}]}}}, "dtype": {"type": "DT_INT32"}}}, {"name": "StatefulPartitionedCall/decoder/gru_1/PartitionedCall_41/TensorArrayUnstack/TensorListFromTensor/element_shape", "op": "Const", "attr": {"value": {"tensor": {"dtype": "DT_INT32", "tensorShape": {"dim": [{"size": "2"}]}}}, "dtype": {"type": "DT_INT32"}}}, {"name": "StatefulPartitionedCall/decoder/gru_1/Read_123/ReadVariableOp", "op": "Const", "attr": {"dtype": {"type": "DT_FLOAT"}, "value": {"tensor": {"dtype": "DT_FLOAT", "tensorShape": {"dim": [{"size": "256"}, {"size": "3072"}]}}}}}, {"name": "ConstantFolding/StatefulPartitionedCall/decoder/gru_1/PartitionedCall_41/unstack-folded-0", "op": "Const", "attr": {"value": {"tensor": {"dtype": "DT_FLOAT", "tensorShape": {"dim": [{"size": "3072"}]}}}, "dtype": {"type": "DT_FLOAT"}}}, {"name": "StatefulPartitionedCall/decoder/gru_1/Read_124/ReadVariableOp", "op": "Const", "attr": {"value": {"tensor": {"dtype": "DT_FLOAT", "tensorShape": {"dim": [{"size": "1024"}, {"size": "3072"}]}}}, "dtype": {"type": "DT_FLOAT"}}}, {"name": "ConstantFolding/StatefulPartitionedCall/decoder/gru_1/PartitionedCall_41/unstack-folded-1", "op": "Const", "attr": {"value": {"tensor": {"dtype": "DT_FLOAT", "tensorShape": {"dim": [{"size": "3072"}]}}}, "dtype": {"type": "DT_FLOAT"}}}, {"name": "StatefulPartitionedCall/decoder/gru_1/PartitionedCall_41/time", "op": "Const", "attr": {"dtype": {"type": "DT_INT32"}, "value": {"tensor": {"dtype": "DT_INT32", "tensorShape": {}}}}}, {"name": "StatefulPartitionedCall/Const_40", "op": "Const", "attr": {"dtype": {"type": "DT_INT64"}, "value": {"tensor": {"dtype": "DT_INT64", "tensorShape": {}}}}}, {"name": "StatefulPartitionedCall/SelectV2_80/condition", "op": "Const", "attr": {"dtype": {"type": "DT_BOOL"}, "value": {"tensor": {"dtype": "DT_BOOL", "tensorShape": {"dim": [{"size": "1"}, {"size": "1"}, {"size": "2106"}]}}}}}, {"name": "StatefulPartitionedCall/SelectV2_80/t", "op": "Const", "attr": {"dtype": {"type": "DT_FLOAT"}, "value": {"tensor": {"dtype": "DT_FLOAT", "tensorShape": {}}}}}, {"name": "StatefulPartitionedCall/decoder/dense_3/Tensordot_40/Const", "op": "Const", "attr": {"value": {"tensor": {"dtype": "DT_INT32", "tensorShape": {"dim": [{"size": "1"}]}}}, "dtype": {"type": "DT_INT32"}}}, {"name": "StatefulPartitionedCall/decoder/dense_3/Tensordot_40/axes", "op": "Const", "attr": {"value": {"tensor": {"dtype": "DT_INT32", "tensorShape": {"dim": [{"size": "1"}]}}}, "dtype": {"type": "DT_INT32"}}}, {"name": "StatefulPartitionedCall/decoder/dense_3/Tensordot_40/GatherV2_1/axis", "op": "Const", "attr": {"value": {"tensor": {"dtype": "DT_INT32", "tensorShape": {}}}, "dtype": {"type": "DT_INT32"}}}, {"name": "StatefulPartitionedCall/decoder/dense_3/Tensordot_40/Const_1", "op": "Const", "attr": {"dtype": {"type": "DT_INT32"}, "value": {"tensor": {"dtype": "DT_INT32", "tensorShape": {"dim": [{"size": "1"}]}}}}}, {"name": "StatefulPartitionedCall/decoder/dense_3/Tensordot_40/ReadVariableOp", "op": "Const", "attr": {"dtype": {"type": "DT_FLOAT"}, "value": {"tensor": {"dtype": "DT_FLOAT", "tensorShape": {"dim": [{"size": "1024"}, {"size": "2106"}]}}}}}, {"name": "StatefulPartitionedCall/decoder/dense_2/Tensordot_40/Const", "op": "Const", "attr": {"value": {"tensor": {"dtype": "DT_INT32", "tensorShape": {"dim": [{"size": "1"}]}}}, "dtype": {"type": "DT_INT32"}}}, {"name": "StatefulPartitionedCall/decoder/dense_2/Tensordot_40/axes", "op": "Const", "attr": {"value": {"tensor": {"dtype": "DT_INT32", "tensorShape": {"dim": [{"size": "1"}]}}}, "dtype": {"type": "DT_INT32"}}}, {"name": "StatefulPartitionedCall/decoder/dense_2/Tensordot_40/GatherV2_1/axis", "op": "Const", "attr": {"dtype": {"type": "DT_INT32"}, "value": {"tensor": {"dtype": "DT_INT32", "tensorShape": {}}}}}, {"name": "StatefulPartitionedCall/decoder/dense_2/Tensordot_40/Const_1", "op": "Const", "attr": {"dtype": {"type": "DT_INT32"}, "value": {"tensor": {"dtype": "DT_INT32", "tensorShape": {"dim": [{"size": "1"}]}}}}}, {"name": "StatefulPartitionedCall/decoder/dense_2/Tensordot_40/ReadVariableOp", "op": "Const", "attr": {"dtype": {"type": "DT_FLOAT"}, "value": {"tensor": {"dtype": "DT_FLOAT", "tensorShape": {"dim": [{"size": "2048"}, {"size": "1024"}]}}}}}, {"name": "StatefulPartitionedCall/decoder/bahdanau_attention/additive_attention/ReadVariableOp_40", "op": "Const", "attr": {"dtype": {"type": "DT_FLOAT"}, "value": {"tensor": {"dtype": "DT_FLOAT", "tensorShape": {"dim": [{"size": "1024"}]}}}}}, {"name": "StatefulPartitionedCall/decoder/bahdanau_attention/dense/Tensordot_40/Const", "op": "Const", "attr": {"dtype": {"type": "DT_INT32"}, "value": {"tensor": {"dtype": "DT_INT32", "tensorShape": {"dim": [{"size": "1"}]}}}}}, {"name": "StatefulPartitionedCall/decoder/bahdanau_attention/dense/Tensordot_40/axes", "op": "Const", "attr": {"value": {"tensor": {"dtype": "DT_INT32", "tensorShape": {"dim": [{"size": "1"}]}}}, "dtype": {"type": "DT_INT32"}}}, {"name": "StatefulPartitionedCall/decoder/bahdanau_attention/dense/Tensordot_40/GatherV2_1/axis", "op": "Const", "attr": {"dtype": {"type": "DT_INT32"}, "value": {"tensor": {"dtype": "DT_INT32", "tensorShape": {}}}}}, {"name": "StatefulPartitionedCall/decoder/bahdanau_attention/dense/Tensordot_40/Const_1", "op": "Const", "attr": {"dtype": {"type": "DT_INT32"}, "value": {"tensor": {"dtype": "DT_INT32", "tensorShape": {"dim": [{"size": "1"}]}}}}}, {"name": "StatefulPartitionedCall/decoder/bahdanau_attention/dense/Tensordot_40/ReadVariableOp", "op": "Const", "attr": {"value": {"tensor": {"dtype": "DT_FLOAT", "tensorShape": {"dim": [{"size": "1024"}, {"size": "1024"}]}}}, "dtype": {"type": "DT_FLOAT"}}}, {"name": "StatefulPartitionedCall/decoder/bahdanau_attention/dense/Tensordot_40/free", "op": "Const", "attr": {"dtype": {"type": "DT_INT32"}, "value": {"tensor": {"dtype": "DT_INT32", "tensorShape": {"dim": [{"size": "2"}]}}}}}, {"name": "StatefulPartitionedCall/decoder/bahdanau_attention/dense/Tensordot_40/GatherV2/axis", "op": "Const", "attr": {"dtype": {"type": "DT_INT32"}, "value": {"tensor": {"dtype": "DT_INT32", "tensorShape": {}}}}}, {"name": "StatefulPartitionedCall/decoder/bahdanau_attention/dense/Tensordot_40/Const_2", "op": "Const", "attr": {"value": {"tensor": {"dtype": "DT_INT32", "tensorShape": {"dim": [{"size": "1"}]}}}, "dtype": {"type": "DT_INT32"}}}, {"name": "StatefulPartitionedCall/decoder/bahdanau_attention/dense/Tensordot_40/concat_1/axis", "op": "Const", "attr": {"value": {"tensor": {"dtype": "DT_INT32", "tensorShape": {}}}, "dtype": {"type": "DT_INT32"}}}, {"name": "StatefulPartitionedCall/decoder/bahdanau_attention/additive_attention/ExpandDims_160/dim", "op": "Const", "attr": {"value": {"tensor": {"dtype": "DT_INT32", "tensorShape": {}}}, "dtype": {"type": "DT_INT32"}}}, {"name": "StatefulPartitionedCall/decoder/bahdanau_attention/dense_1/Tensordot_40/Const", "op": "Const", "attr": {"value": {"tensor": {"dtype": "DT_INT32", "tensorShape": {"dim": [{"size": "1"}]}}}, "dtype": {"type": "DT_INT32"}}}, {"name": "StatefulPartitionedCall/decoder/bahdanau_attention/dense_1/Tensordot_40/axes", "op": "Const", "attr": {"value": {"tensor": {"dtype": "DT_INT32", "tensorShape": {"dim": [{"size": "1"}]}}}, "dtype": {"type": "DT_INT32"}}}, {"name": "StatefulPartitionedCall/decoder/bahdanau_attention/dense_1/Tensordot_40/GatherV2_1/axis", "op": "Const", "attr": {"dtype": {"type": "DT_INT32"}, "value": {"tensor": {"dtype": "DT_INT32", "tensorShape": {}}}}}, {"name": "StatefulPartitionedCall/decoder/bahdanau_attention/dense_1/Tensordot_40/Const_1", "op": "Const", "attr": {"value": {"tensor": {"dtype": "DT_INT32", "tensorShape": {"dim": [{"size": "1"}]}}}, "dtype": {"type": "DT_INT32"}}}, {"name": "StatefulPartitionedCall/decoder/bahdanau_attention/dense_1/Tensordot_40/ReadVariableOp", "op": "Const", "attr": {"value": {"tensor": {"dtype": "DT_FLOAT", "tensorShape": {"dim": [{"size": "1024"}, {"size": "1024"}]}}}, "dtype": {"type": "DT_FLOAT"}}}, {"name": "StatefulPartitionedCall/decoder/bahdanau_attention/dense_1/Tensordot_40/free", "op": "Const", "attr": {"value": {"tensor": {"dtype": "DT_INT32", "tensorShape": {"dim": [{"size": "2"}]}}}, "dtype": {"type": "DT_INT32"}}}, {"name": "StatefulPartitionedCall/decoder/bahdanau_attention/dense_1/Tensordot_40/GatherV2/axis", "op": "Const", "attr": {"value": {"tensor": {"dtype": "DT_INT32", "tensorShape": {}}}, "dtype": {"type": "DT_INT32"}}}, {"name": "StatefulPartitionedCall/decoder/bahdanau_attention/dense_1/Tensordot_40/Const_2", "op": "Const", "attr": {"dtype": {"type": "DT_INT32"}, "value": {"tensor": {"dtype": "DT_INT32", "tensorShape": {"dim": [{"size": "1"}]}}}}}, {"name": "StatefulPartitionedCall/decoder/bahdanau_attention/dense_1/Tensordot_40/concat_1/axis", "op": "Const", "attr": {"value": {"tensor": {"dtype": "DT_INT32", "tensorShape": {}}}, "dtype": {"type": "DT_INT32"}}}, {"name": "StatefulPartitionedCall/decoder/bahdanau_attention/additive_attention/ExpandDims_161/dim", "op": "Const", "attr": {"value": {"tensor": {"dtype": "DT_INT32", "tensorShape": {}}}, "dtype": {"type": "DT_INT32"}}}, {"name": "StatefulPartitionedCall/decoder/bahdanau_attention/additive_attention/Sum_40/reduction_indices", "op": "Const", "attr": {"dtype": {"type": "DT_INT32"}, "value": {"tensor": {"dtype": "DT_INT32", "tensorShape": {}}}}}, {"name": "StatefulPartitionedCall/decoder/bahdanau_attention/additive_attention/mul_121/x", "op": "Const", "attr": {"value": {"tensor": {"dtype": "DT_FLOAT", "tensorShape": {}}}, "dtype": {"type": "DT_FLOAT"}}}, {"name": "StatefulPartitionedCall/x_40", "op": "Const", "attr": {"dtype": {"type": "DT_INT64"}, "value": {"tensor": {"dtype": "DT_INT64", "tensorShape": {}}}}}, {"name": "StatefulPartitionedCall/decoder/bahdanau_attention/additive_attention/ExpandDims_162/dim", "op": "Const", "attr": {"value": {"tensor": {"dtype": "DT_INT32", "tensorShape": {}}}, "dtype": {"type": "DT_INT32"}}}, {"name": "StatefulPartitionedCall/decoder/bahdanau_attention/strided_slice_40/stack", "op": "Const", "attr": {"value": {"tensor": {"dtype": "DT_INT32", "tensorShape": {"dim": [{"size": "1"}]}}}, "dtype": {"type": "DT_INT32"}}}, {"name": "StatefulPartitionedCall/decoder/bahdanau_attention/strided_slice_40/stack_1", "op": "Const", "attr": {"dtype": {"type": "DT_INT32"}, "value": {"tensor": {"dtype": "DT_INT32", "tensorShape": {"dim": [{"size": "1"}]}}}}}, {"name": "StatefulPartitionedCall/decoder/bahdanau_attention/strided_slice_40/stack_2", "op": "Const", "attr": {"dtype": {"type": "DT_INT32"}, "value": {"tensor": {"dtype": "DT_INT32", "tensorShape": {"dim": [{"size": "1"}]}}}}}, {"name": "StatefulPartitionedCall/decoder/bahdanau_attention/ones_40/Const", "op": "Const", "attr": {"value": {"tensor": {"dtype": "DT_BOOL", "tensorShape": {}}}, "dtype": {"type": "DT_BOOL"}}}, {"name": "StatefulPartitionedCall/decoder/bahdanau_attention/additive_attention/ExpandDims_163/dim", "op": "Const", "attr": {"value": {"tensor": {"dtype": "DT_INT32", "tensorShape": {}}}, "dtype": {"type": "DT_INT32"}}}, {"name": "StatefulPartitionedCall/decoder/gru_1/PartitionedCall_40/TensorArrayV2_1/element_shape", "op": "Const", "attr": {"value": {"tensor": {"dtype": "DT_INT32", "tensorShape": {"dim": [{"size": "2"}]}}}, "dtype": {"type": "DT_INT32"}}}, {"name": "StatefulPartitionedCall/decoder/gru_1/PartitionedCall_40/TensorArrayUnstack/TensorListFromTensor/element_shape", "op": "Const", "attr": {"value": {"tensor": {"dtype": "DT_INT32", "tensorShape": {"dim": [{"size": "2"}]}}}, "dtype": {"type": "DT_INT32"}}}, {"name": "StatefulPartitionedCall/decoder/gru_1/Read_120/ReadVariableOp", "op": "Const", "attr": {"dtype": {"type": "DT_FLOAT"}, "value": {"tensor": {"dtype": "DT_FLOAT", "tensorShape": {"dim": [{"size": "256"}, {"size": "3072"}]}}}}}, {"name": "ConstantFolding/StatefulPartitionedCall/decoder/gru_1/PartitionedCall_40/unstack-folded-0", "op": "Const", "attr": {"value": {"tensor": {"dtype": "DT_FLOAT", "tensorShape": {"dim": [{"size": "3072"}]}}}, "dtype": {"type": "DT_FLOAT"}}}, {"name": "StatefulPartitionedCall/decoder/gru_1/Read_121/ReadVariableOp", "op": "Const", "attr": {"dtype": {"type": "DT_FLOAT"}, "value": {"tensor": {"dtype": "DT_FLOAT", "tensorShape": {"dim": [{"size": "1024"}, {"size": "3072"}]}}}}}, {"name": "ConstantFolding/StatefulPartitionedCall/decoder/gru_1/PartitionedCall_40/unstack-folded-1", "op": "Const", "attr": {"dtype": {"type": "DT_FLOAT"}, "value": {"tensor": {"dtype": "DT_FLOAT", "tensorShape": {"dim": [{"size": "3072"}]}}}}}, {"name": "StatefulPartitionedCall/decoder/gru_1/PartitionedCall_40/time", "op": "Const", "attr": {"dtype": {"type": "DT_INT32"}, "value": {"tensor": {"dtype": "DT_INT32", "tensorShape": {}}}}}, {"name": "StatefulPartitionedCall/Const_39", "op": "Const", "attr": {"value": {"tensor": {"dtype": "DT_INT64", "tensorShape": {}}}, "dtype": {"type": "DT_INT64"}}}, {"name": "StatefulPartitionedCall/SelectV2_78/condition", "op": "Const", "attr": {"value": {"tensor": {"dtype": "DT_BOOL", "tensorShape": {"dim": [{"size": "1"}, {"size": "1"}, {"size": "2106"}]}}}, "dtype": {"type": "DT_BOOL"}}}, {"name": "StatefulPartitionedCall/SelectV2_78/t", "op": "Const", "attr": {"dtype": {"type": "DT_FLOAT"}, "value": {"tensor": {"dtype": "DT_FLOAT", "tensorShape": {}}}}}, {"name": "StatefulPartitionedCall/decoder/dense_3/Tensordot_39/Const", "op": "Const", "attr": {"value": {"tensor": {"dtype": "DT_INT32", "tensorShape": {"dim": [{"size": "1"}]}}}, "dtype": {"type": "DT_INT32"}}}, {"name": "StatefulPartitionedCall/decoder/dense_3/Tensordot_39/axes", "op": "Const", "attr": {"dtype": {"type": "DT_INT32"}, "value": {"tensor": {"dtype": "DT_INT32", "tensorShape": {"dim": [{"size": "1"}]}}}}}, {"name": "StatefulPartitionedCall/decoder/dense_3/Tensordot_39/GatherV2_1/axis", "op": "Const", "attr": {"dtype": {"type": "DT_INT32"}, "value": {"tensor": {"dtype": "DT_INT32", "tensorShape": {}}}}}, {"name": "StatefulPartitionedCall/decoder/dense_3/Tensordot_39/Const_1", "op": "Const", "attr": {"dtype": {"type": "DT_INT32"}, "value": {"tensor": {"dtype": "DT_INT32", "tensorShape": {"dim": [{"size": "1"}]}}}}}, {"name": "StatefulPartitionedCall/decoder/dense_3/Tensordot_39/ReadVariableOp", "op": "Const", "attr": {"dtype": {"type": "DT_FLOAT"}, "value": {"tensor": {"dtype": "DT_FLOAT", "tensorShape": {"dim": [{"size": "1024"}, {"size": "2106"}]}}}}}, {"name": "StatefulPartitionedCall/decoder/dense_2/Tensordot_39/Const", "op": "Const", "attr": {"value": {"tensor": {"dtype": "DT_INT32", "tensorShape": {"dim": [{"size": "1"}]}}}, "dtype": {"type": "DT_INT32"}}}, {"name": "StatefulPartitionedCall/decoder/dense_2/Tensordot_39/axes", "op": "Const", "attr": {"dtype": {"type": "DT_INT32"}, "value": {"tensor": {"dtype": "DT_INT32", "tensorShape": {"dim": [{"size": "1"}]}}}}}, {"name": "StatefulPartitionedCall/decoder/dense_2/Tensordot_39/GatherV2_1/axis", "op": "Const", "attr": {"value": {"tensor": {"dtype": "DT_INT32", "tensorShape": {}}}, "dtype": {"type": "DT_INT32"}}}, {"name": "StatefulPartitionedCall/decoder/dense_2/Tensordot_39/Const_1", "op": "Const", "attr": {"value": {"tensor": {"dtype": "DT_INT32", "tensorShape": {"dim": [{"size": "1"}]}}}, "dtype": {"type": "DT_INT32"}}}, {"name": "StatefulPartitionedCall/decoder/dense_2/Tensordot_39/ReadVariableOp", "op": "Const", "attr": {"dtype": {"type": "DT_FLOAT"}, "value": {"tensor": {"dtype": "DT_FLOAT", "tensorShape": {"dim": [{"size": "2048"}, {"size": "1024"}]}}}}}, {"name": "StatefulPartitionedCall/decoder/bahdanau_attention/additive_attention/ReadVariableOp_39", "op": "Const", "attr": {"value": {"tensor": {"dtype": "DT_FLOAT", "tensorShape": {"dim": [{"size": "1024"}]}}}, "dtype": {"type": "DT_FLOAT"}}}, {"name": "StatefulPartitionedCall/decoder/bahdanau_attention/dense/Tensordot_39/Const", "op": "Const", "attr": {"dtype": {"type": "DT_INT32"}, "value": {"tensor": {"dtype": "DT_INT32", "tensorShape": {"dim": [{"size": "1"}]}}}}}, {"name": "StatefulPartitionedCall/decoder/bahdanau_attention/dense/Tensordot_39/axes", "op": "Const", "attr": {"dtype": {"type": "DT_INT32"}, "value": {"tensor": {"dtype": "DT_INT32", "tensorShape": {"dim": [{"size": "1"}]}}}}}, {"name": "StatefulPartitionedCall/decoder/bahdanau_attention/dense/Tensordot_39/GatherV2_1/axis", "op": "Const", "attr": {"value": {"tensor": {"dtype": "DT_INT32", "tensorShape": {}}}, "dtype": {"type": "DT_INT32"}}}, {"name": "StatefulPartitionedCall/decoder/bahdanau_attention/dense/Tensordot_39/Const_1", "op": "Const", "attr": {"value": {"tensor": {"dtype": "DT_INT32", "tensorShape": {"dim": [{"size": "1"}]}}}, "dtype": {"type": "DT_INT32"}}}, {"name": "StatefulPartitionedCall/decoder/bahdanau_attention/dense/Tensordot_39/ReadVariableOp", "op": "Const", "attr": {"value": {"tensor": {"dtype": "DT_FLOAT", "tensorShape": {"dim": [{"size": "1024"}, {"size": "1024"}]}}}, "dtype": {"type": "DT_FLOAT"}}}, {"name": "StatefulPartitionedCall/decoder/bahdanau_attention/dense/Tensordot_39/free", "op": "Const", "attr": {"value": {"tensor": {"dtype": "DT_INT32", "tensorShape": {"dim": [{"size": "2"}]}}}, "dtype": {"type": "DT_INT32"}}}, {"name": "StatefulPartitionedCall/decoder/bahdanau_attention/dense/Tensordot_39/GatherV2/axis", "op": "Const", "attr": {"value": {"tensor": {"dtype": "DT_INT32", "tensorShape": {}}}, "dtype": {"type": "DT_INT32"}}}, {"name": "StatefulPartitionedCall/decoder/bahdanau_attention/dense/Tensordot_39/Const_2", "op": "Const", "attr": {"dtype": {"type": "DT_INT32"}, "value": {"tensor": {"dtype": "DT_INT32", "tensorShape": {"dim": [{"size": "1"}]}}}}}, {"name": "StatefulPartitionedCall/decoder/bahdanau_attention/dense/Tensordot_39/concat_1/axis", "op": "Const", "attr": {"value": {"tensor": {"dtype": "DT_INT32", "tensorShape": {}}}, "dtype": {"type": "DT_INT32"}}}, {"name": "StatefulPartitionedCall/decoder/bahdanau_attention/additive_attention/ExpandDims_156/dim", "op": "Const", "attr": {"dtype": {"type": "DT_INT32"}, "value": {"tensor": {"dtype": "DT_INT32", "tensorShape": {}}}}}, {"name": "StatefulPartitionedCall/decoder/bahdanau_attention/dense_1/Tensordot_39/Const", "op": "Const", "attr": {"dtype": {"type": "DT_INT32"}, "value": {"tensor": {"dtype": "DT_INT32", "tensorShape": {"dim": [{"size": "1"}]}}}}}, {"name": "StatefulPartitionedCall/decoder/bahdanau_attention/dense_1/Tensordot_39/axes", "op": "Const", "attr": {"dtype": {"type": "DT_INT32"}, "value": {"tensor": {"dtype": "DT_INT32", "tensorShape": {"dim": [{"size": "1"}]}}}}}, {"name": "StatefulPartitionedCall/decoder/bahdanau_attention/dense_1/Tensordot_39/GatherV2_1/axis", "op": "Const", "attr": {"value": {"tensor": {"dtype": "DT_INT32", "tensorShape": {}}}, "dtype": {"type": "DT_INT32"}}}, {"name": "StatefulPartitionedCall/decoder/bahdanau_attention/dense_1/Tensordot_39/Const_1", "op": "Const", "attr": {"dtype": {"type": "DT_INT32"}, "value": {"tensor": {"dtype": "DT_INT32", "tensorShape": {"dim": [{"size": "1"}]}}}}}, {"name": "StatefulPartitionedCall/decoder/bahdanau_attention/dense_1/Tensordot_39/ReadVariableOp", "op": "Const", "attr": {"dtype": {"type": "DT_FLOAT"}, "value": {"tensor": {"dtype": "DT_FLOAT", "tensorShape": {"dim": [{"size": "1024"}, {"size": "1024"}]}}}}}, {"name": "StatefulPartitionedCall/decoder/bahdanau_attention/dense_1/Tensordot_39/free", "op": "Const", "attr": {"dtype": {"type": "DT_INT32"}, "value": {"tensor": {"dtype": "DT_INT32", "tensorShape": {"dim": [{"size": "2"}]}}}}}, {"name": "StatefulPartitionedCall/decoder/bahdanau_attention/dense_1/Tensordot_39/GatherV2/axis", "op": "Const", "attr": {"dtype": {"type": "DT_INT32"}, "value": {"tensor": {"dtype": "DT_INT32", "tensorShape": {}}}}}, {"name": "StatefulPartitionedCall/decoder/bahdanau_attention/dense_1/Tensordot_39/Const_2", "op": "Const", "attr": {"value": {"tensor": {"dtype": "DT_INT32", "tensorShape": {"dim": [{"size": "1"}]}}}, "dtype": {"type": "DT_INT32"}}}, {"name": "StatefulPartitionedCall/decoder/bahdanau_attention/dense_1/Tensordot_39/concat_1/axis", "op": "Const", "attr": {"value": {"tensor": {"dtype": "DT_INT32", "tensorShape": {}}}, "dtype": {"type": "DT_INT32"}}}, {"name": "StatefulPartitionedCall/decoder/bahdanau_attention/additive_attention/ExpandDims_157/dim", "op": "Const", "attr": {"value": {"tensor": {"dtype": "DT_INT32", "tensorShape": {}}}, "dtype": {"type": "DT_INT32"}}}, {"name": "StatefulPartitionedCall/decoder/bahdanau_attention/additive_attention/Sum_39/reduction_indices", "op": "Const", "attr": {"dtype": {"type": "DT_INT32"}, "value": {"tensor": {"dtype": "DT_INT32", "tensorShape": {}}}}}, {"name": "StatefulPartitionedCall/decoder/bahdanau_attention/additive_attention/mul_118/x", "op": "Const", "attr": {"value": {"tensor": {"dtype": "DT_FLOAT", "tensorShape": {}}}, "dtype": {"type": "DT_FLOAT"}}}, {"name": "StatefulPartitionedCall/x_39", "op": "Const", "attr": {"value": {"tensor": {"dtype": "DT_INT64", "tensorShape": {}}}, "dtype": {"type": "DT_INT64"}}}, {"name": "StatefulPartitionedCall/decoder/bahdanau_attention/additive_attention/ExpandDims_158/dim", "op": "Const", "attr": {"value": {"tensor": {"dtype": "DT_INT32", "tensorShape": {}}}, "dtype": {"type": "DT_INT32"}}}, {"name": "StatefulPartitionedCall/decoder/bahdanau_attention/strided_slice_39/stack", "op": "Const", "attr": {"dtype": {"type": "DT_INT32"}, "value": {"tensor": {"dtype": "DT_INT32", "tensorShape": {"dim": [{"size": "1"}]}}}}}, {"name": "StatefulPartitionedCall/decoder/bahdanau_attention/strided_slice_39/stack_1", "op": "Const", "attr": {"value": {"tensor": {"dtype": "DT_INT32", "tensorShape": {"dim": [{"size": "1"}]}}}, "dtype": {"type": "DT_INT32"}}}, {"name": "StatefulPartitionedCall/decoder/bahdanau_attention/strided_slice_39/stack_2", "op": "Const", "attr": {"value": {"tensor": {"dtype": "DT_INT32", "tensorShape": {"dim": [{"size": "1"}]}}}, "dtype": {"type": "DT_INT32"}}}, {"name": "StatefulPartitionedCall/decoder/bahdanau_attention/ones_39/Const", "op": "Const", "attr": {"dtype": {"type": "DT_BOOL"}, "value": {"tensor": {"dtype": "DT_BOOL", "tensorShape": {}}}}}, {"name": "StatefulPartitionedCall/decoder/bahdanau_attention/additive_attention/ExpandDims_159/dim", "op": "Const", "attr": {"value": {"tensor": {"dtype": "DT_INT32", "tensorShape": {}}}, "dtype": {"type": "DT_INT32"}}}, {"name": "StatefulPartitionedCall/decoder/gru_1/PartitionedCall_39/TensorArrayV2_1/element_shape", "op": "Const", "attr": {"value": {"tensor": {"dtype": "DT_INT32", "tensorShape": {"dim": [{"size": "2"}]}}}, "dtype": {"type": "DT_INT32"}}}, {"name": "StatefulPartitionedCall/decoder/gru_1/PartitionedCall_39/TensorArrayUnstack/TensorListFromTensor/element_shape", "op": "Const", "attr": {"dtype": {"type": "DT_INT32"}, "value": {"tensor": {"dtype": "DT_INT32", "tensorShape": {"dim": [{"size": "2"}]}}}}}, {"name": "StatefulPartitionedCall/decoder/gru_1/Read_117/ReadVariableOp", "op": "Const", "attr": {"dtype": {"type": "DT_FLOAT"}, "value": {"tensor": {"dtype": "DT_FLOAT", "tensorShape": {"dim": [{"size": "256"}, {"size": "3072"}]}}}}}, {"name": "ConstantFolding/StatefulPartitionedCall/decoder/gru_1/PartitionedCall_39/unstack-folded-0", "op": "Const", "attr": {"dtype": {"type": "DT_FLOAT"}, "value": {"tensor": {"dtype": "DT_FLOAT", "tensorShape": {"dim": [{"size": "3072"}]}}}}}, {"name": "StatefulPartitionedCall/decoder/gru_1/Read_118/ReadVariableOp", "op": "Const", "attr": {"dtype": {"type": "DT_FLOAT"}, "value": {"tensor": {"dtype": "DT_FLOAT", "tensorShape": {"dim": [{"size": "1024"}, {"size": "3072"}]}}}}}, {"name": "ConstantFolding/StatefulPartitionedCall/decoder/gru_1/PartitionedCall_39/unstack-folded-1", "op": "Const", "attr": {"dtype": {"type": "DT_FLOAT"}, "value": {"tensor": {"dtype": "DT_FLOAT", "tensorShape": {"dim": [{"size": "3072"}]}}}}}, {"name": "StatefulPartitionedCall/decoder/gru_1/PartitionedCall_39/time", "op": "Const", "attr": {"dtype": {"type": "DT_INT32"}, "value": {"tensor": {"dtype": "DT_INT32", "tensorShape": {}}}}}, {"name": "StatefulPartitionedCall/Const_38", "op": "Const", "attr": {"dtype": {"type": "DT_INT64"}, "value": {"tensor": {"dtype": "DT_INT64", "tensorShape": {}}}}}, {"name": "StatefulPartitionedCall/SelectV2_76/condition", "op": "Const", "attr": {"value": {"tensor": {"dtype": "DT_BOOL", "tensorShape": {"dim": [{"size": "1"}, {"size": "1"}, {"size": "2106"}]}}}, "dtype": {"type": "DT_BOOL"}}}, {"name": "StatefulPartitionedCall/SelectV2_76/t", "op": "Const", "attr": {"value": {"tensor": {"dtype": "DT_FLOAT", "tensorShape": {}}}, "dtype": {"type": "DT_FLOAT"}}}, {"name": "StatefulPartitionedCall/decoder/dense_3/Tensordot_38/Const", "op": "Const", "attr": {"value": {"tensor": {"dtype": "DT_INT32", "tensorShape": {"dim": [{"size": "1"}]}}}, "dtype": {"type": "DT_INT32"}}}, {"name": "StatefulPartitionedCall/decoder/dense_3/Tensordot_38/axes", "op": "Const", "attr": {"dtype": {"type": "DT_INT32"}, "value": {"tensor": {"dtype": "DT_INT32", "tensorShape": {"dim": [{"size": "1"}]}}}}}, {"name": "StatefulPartitionedCall/decoder/dense_3/Tensordot_38/GatherV2_1/axis", "op": "Const", "attr": {"dtype": {"type": "DT_INT32"}, "value": {"tensor": {"dtype": "DT_INT32", "tensorShape": {}}}}}, {"name": "StatefulPartitionedCall/decoder/dense_3/Tensordot_38/Const_1", "op": "Const", "attr": {"value": {"tensor": {"dtype": "DT_INT32", "tensorShape": {"dim": [{"size": "1"}]}}}, "dtype": {"type": "DT_INT32"}}}, {"name": "StatefulPartitionedCall/decoder/dense_3/Tensordot_38/ReadVariableOp", "op": "Const", "attr": {"dtype": {"type": "DT_FLOAT"}, "value": {"tensor": {"dtype": "DT_FLOAT", "tensorShape": {"dim": [{"size": "1024"}, {"size": "2106"}]}}}}}, {"name": "StatefulPartitionedCall/decoder/dense_2/Tensordot_38/Const", "op": "Const", "attr": {"value": {"tensor": {"dtype": "DT_INT32", "tensorShape": {"dim": [{"size": "1"}]}}}, "dtype": {"type": "DT_INT32"}}}, {"name": "StatefulPartitionedCall/decoder/dense_2/Tensordot_38/axes", "op": "Const", "attr": {"value": {"tensor": {"dtype": "DT_INT32", "tensorShape": {"dim": [{"size": "1"}]}}}, "dtype": {"type": "DT_INT32"}}}, {"name": "StatefulPartitionedCall/decoder/dense_2/Tensordot_38/GatherV2_1/axis", "op": "Const", "attr": {"dtype": {"type": "DT_INT32"}, "value": {"tensor": {"dtype": "DT_INT32", "tensorShape": {}}}}}, {"name": "StatefulPartitionedCall/decoder/dense_2/Tensordot_38/Const_1", "op": "Const", "attr": {"value": {"tensor": {"dtype": "DT_INT32", "tensorShape": {"dim": [{"size": "1"}]}}}, "dtype": {"type": "DT_INT32"}}}, {"name": "StatefulPartitionedCall/decoder/dense_2/Tensordot_38/ReadVariableOp", "op": "Const", "attr": {"dtype": {"type": "DT_FLOAT"}, "value": {"tensor": {"dtype": "DT_FLOAT", "tensorShape": {"dim": [{"size": "2048"}, {"size": "1024"}]}}}}}, {"name": "StatefulPartitionedCall/decoder/bahdanau_attention/additive_attention/ReadVariableOp_38", "op": "Const", "attr": {"value": {"tensor": {"dtype": "DT_FLOAT", "tensorShape": {"dim": [{"size": "1024"}]}}}, "dtype": {"type": "DT_FLOAT"}}}, {"name": "StatefulPartitionedCall/decoder/bahdanau_attention/dense/Tensordot_38/Const", "op": "Const", "attr": {"value": {"tensor": {"dtype": "DT_INT32", "tensorShape": {"dim": [{"size": "1"}]}}}, "dtype": {"type": "DT_INT32"}}}, {"name": "StatefulPartitionedCall/decoder/bahdanau_attention/dense/Tensordot_38/axes", "op": "Const", "attr": {"dtype": {"type": "DT_INT32"}, "value": {"tensor": {"dtype": "DT_INT32", "tensorShape": {"dim": [{"size": "1"}]}}}}}, {"name": "StatefulPartitionedCall/decoder/bahdanau_attention/dense/Tensordot_38/GatherV2_1/axis", "op": "Const", "attr": {"dtype": {"type": "DT_INT32"}, "value": {"tensor": {"dtype": "DT_INT32", "tensorShape": {}}}}}, {"name": "StatefulPartitionedCall/decoder/bahdanau_attention/dense/Tensordot_38/Const_1", "op": "Const", "attr": {"value": {"tensor": {"dtype": "DT_INT32", "tensorShape": {"dim": [{"size": "1"}]}}}, "dtype": {"type": "DT_INT32"}}}, {"name": "StatefulPartitionedCall/decoder/bahdanau_attention/dense/Tensordot_38/ReadVariableOp", "op": "Const", "attr": {"value": {"tensor": {"dtype": "DT_FLOAT", "tensorShape": {"dim": [{"size": "1024"}, {"size": "1024"}]}}}, "dtype": {"type": "DT_FLOAT"}}}, {"name": "StatefulPartitionedCall/decoder/bahdanau_attention/dense/Tensordot_38/free", "op": "Const", "attr": {"dtype": {"type": "DT_INT32"}, "value": {"tensor": {"dtype": "DT_INT32", "tensorShape": {"dim": [{"size": "2"}]}}}}}, {"name": "StatefulPartitionedCall/decoder/bahdanau_attention/dense/Tensordot_38/GatherV2/axis", "op": "Const", "attr": {"value": {"tensor": {"dtype": "DT_INT32", "tensorShape": {}}}, "dtype": {"type": "DT_INT32"}}}, {"name": "StatefulPartitionedCall/decoder/bahdanau_attention/dense/Tensordot_38/Const_2", "op": "Const", "attr": {"dtype": {"type": "DT_INT32"}, "value": {"tensor": {"dtype": "DT_INT32", "tensorShape": {"dim": [{"size": "1"}]}}}}}, {"name": "StatefulPartitionedCall/decoder/bahdanau_attention/dense/Tensordot_38/concat_1/axis", "op": "Const", "attr": {"dtype": {"type": "DT_INT32"}, "value": {"tensor": {"dtype": "DT_INT32", "tensorShape": {}}}}}, {"name": "StatefulPartitionedCall/decoder/bahdanau_attention/additive_attention/ExpandDims_152/dim", "op": "Const", "attr": {"value": {"tensor": {"dtype": "DT_INT32", "tensorShape": {}}}, "dtype": {"type": "DT_INT32"}}}, {"name": "StatefulPartitionedCall/decoder/bahdanau_attention/dense_1/Tensordot_38/Const", "op": "Const", "attr": {"dtype": {"type": "DT_INT32"}, "value": {"tensor": {"dtype": "DT_INT32", "tensorShape": {"dim": [{"size": "1"}]}}}}}, {"name": "StatefulPartitionedCall/decoder/bahdanau_attention/dense_1/Tensordot_38/axes", "op": "Const", "attr": {"dtype": {"type": "DT_INT32"}, "value": {"tensor": {"dtype": "DT_INT32", "tensorShape": {"dim": [{"size": "1"}]}}}}}, {"name": "StatefulPartitionedCall/decoder/bahdanau_attention/dense_1/Tensordot_38/GatherV2_1/axis", "op": "Const", "attr": {"value": {"tensor": {"dtype": "DT_INT32", "tensorShape": {}}}, "dtype": {"type": "DT_INT32"}}}, {"name": "StatefulPartitionedCall/decoder/bahdanau_attention/dense_1/Tensordot_38/Const_1", "op": "Const", "attr": {"value": {"tensor": {"dtype": "DT_INT32", "tensorShape": {"dim": [{"size": "1"}]}}}, "dtype": {"type": "DT_INT32"}}}, {"name": "StatefulPartitionedCall/decoder/bahdanau_attention/dense_1/Tensordot_38/ReadVariableOp", "op": "Const", "attr": {"value": {"tensor": {"dtype": "DT_FLOAT", "tensorShape": {"dim": [{"size": "1024"}, {"size": "1024"}]}}}, "dtype": {"type": "DT_FLOAT"}}}, {"name": "StatefulPartitionedCall/decoder/bahdanau_attention/dense_1/Tensordot_38/free", "op": "Const", "attr": {"value": {"tensor": {"dtype": "DT_INT32", "tensorShape": {"dim": [{"size": "2"}]}}}, "dtype": {"type": "DT_INT32"}}}, {"name": "StatefulPartitionedCall/decoder/bahdanau_attention/dense_1/Tensordot_38/GatherV2/axis", "op": "Const", "attr": {"dtype": {"type": "DT_INT32"}, "value": {"tensor": {"dtype": "DT_INT32", "tensorShape": {}}}}}, {"name": "StatefulPartitionedCall/decoder/bahdanau_attention/dense_1/Tensordot_38/Const_2", "op": "Const", "attr": {"value": {"tensor": {"dtype": "DT_INT32", "tensorShape": {"dim": [{"size": "1"}]}}}, "dtype": {"type": "DT_INT32"}}}, {"name": "StatefulPartitionedCall/decoder/bahdanau_attention/dense_1/Tensordot_38/concat_1/axis", "op": "Const", "attr": {"dtype": {"type": "DT_INT32"}, "value": {"tensor": {"dtype": "DT_INT32", "tensorShape": {}}}}}, {"name": "StatefulPartitionedCall/decoder/bahdanau_attention/additive_attention/ExpandDims_153/dim", "op": "Const", "attr": {"value": {"tensor": {"dtype": "DT_INT32", "tensorShape": {}}}, "dtype": {"type": "DT_INT32"}}}, {"name": "StatefulPartitionedCall/decoder/bahdanau_attention/additive_attention/Sum_38/reduction_indices", "op": "Const", "attr": {"value": {"tensor": {"dtype": "DT_INT32", "tensorShape": {}}}, "dtype": {"type": "DT_INT32"}}}, {"name": "StatefulPartitionedCall/decoder/bahdanau_attention/additive_attention/mul_115/x", "op": "Const", "attr": {"dtype": {"type": "DT_FLOAT"}, "value": {"tensor": {"dtype": "DT_FLOAT", "tensorShape": {}}}}}, {"name": "StatefulPartitionedCall/x_38", "op": "Const", "attr": {"value": {"tensor": {"dtype": "DT_INT64", "tensorShape": {}}}, "dtype": {"type": "DT_INT64"}}}, {"name": "StatefulPartitionedCall/decoder/bahdanau_attention/additive_attention/ExpandDims_154/dim", "op": "Const", "attr": {"value": {"tensor": {"dtype": "DT_INT32", "tensorShape": {}}}, "dtype": {"type": "DT_INT32"}}}, {"name": "StatefulPartitionedCall/decoder/bahdanau_attention/strided_slice_38/stack", "op": "Const", "attr": {"dtype": {"type": "DT_INT32"}, "value": {"tensor": {"dtype": "DT_INT32", "tensorShape": {"dim": [{"size": "1"}]}}}}}, {"name": "StatefulPartitionedCall/decoder/bahdanau_attention/strided_slice_38/stack_1", "op": "Const", "attr": {"dtype": {"type": "DT_INT32"}, "value": {"tensor": {"dtype": "DT_INT32", "tensorShape": {"dim": [{"size": "1"}]}}}}}, {"name": "StatefulPartitionedCall/decoder/bahdanau_attention/strided_slice_38/stack_2", "op": "Const", "attr": {"dtype": {"type": "DT_INT32"}, "value": {"tensor": {"dtype": "DT_INT32", "tensorShape": {"dim": [{"size": "1"}]}}}}}, {"name": "StatefulPartitionedCall/decoder/bahdanau_attention/ones_38/Const", "op": "Const", "attr": {"dtype": {"type": "DT_BOOL"}, "value": {"tensor": {"dtype": "DT_BOOL", "tensorShape": {}}}}}, {"name": "StatefulPartitionedCall/decoder/bahdanau_attention/additive_attention/ExpandDims_155/dim", "op": "Const", "attr": {"value": {"tensor": {"dtype": "DT_INT32", "tensorShape": {}}}, "dtype": {"type": "DT_INT32"}}}, {"name": "StatefulPartitionedCall/decoder/gru_1/PartitionedCall_38/TensorArrayV2_1/element_shape", "op": "Const", "attr": {"value": {"tensor": {"dtype": "DT_INT32", "tensorShape": {"dim": [{"size": "2"}]}}}, "dtype": {"type": "DT_INT32"}}}, {"name": "StatefulPartitionedCall/decoder/gru_1/PartitionedCall_38/TensorArrayUnstack/TensorListFromTensor/element_shape", "op": "Const", "attr": {"dtype": {"type": "DT_INT32"}, "value": {"tensor": {"dtype": "DT_INT32", "tensorShape": {"dim": [{"size": "2"}]}}}}}, {"name": "StatefulPartitionedCall/decoder/gru_1/Read_114/ReadVariableOp", "op": "Const", "attr": {"dtype": {"type": "DT_FLOAT"}, "value": {"tensor": {"dtype": "DT_FLOAT", "tensorShape": {"dim": [{"size": "256"}, {"size": "3072"}]}}}}}, {"name": "ConstantFolding/StatefulPartitionedCall/decoder/gru_1/PartitionedCall_38/unstack-folded-0", "op": "Const", "attr": {"dtype": {"type": "DT_FLOAT"}, "value": {"tensor": {"dtype": "DT_FLOAT", "tensorShape": {"dim": [{"size": "3072"}]}}}}}, {"name": "StatefulPartitionedCall/decoder/gru_1/Read_115/ReadVariableOp", "op": "Const", "attr": {"dtype": {"type": "DT_FLOAT"}, "value": {"tensor": {"dtype": "DT_FLOAT", "tensorShape": {"dim": [{"size": "1024"}, {"size": "3072"}]}}}}}, {"name": "ConstantFolding/StatefulPartitionedCall/decoder/gru_1/PartitionedCall_38/unstack-folded-1", "op": "Const", "attr": {"dtype": {"type": "DT_FLOAT"}, "value": {"tensor": {"dtype": "DT_FLOAT", "tensorShape": {"dim": [{"size": "3072"}]}}}}}, {"name": "StatefulPartitionedCall/decoder/gru_1/PartitionedCall_38/time", "op": "Const", "attr": {"value": {"tensor": {"dtype": "DT_INT32", "tensorShape": {}}}, "dtype": {"type": "DT_INT32"}}}, {"name": "StatefulPartitionedCall/Const_37", "op": "Const", "attr": {"value": {"tensor": {"dtype": "DT_INT64", "tensorShape": {}}}, "dtype": {"type": "DT_INT64"}}}, {"name": "StatefulPartitionedCall/SelectV2_74/condition", "op": "Const", "attr": {"dtype": {"type": "DT_BOOL"}, "value": {"tensor": {"dtype": "DT_BOOL", "tensorShape": {"dim": [{"size": "1"}, {"size": "1"}, {"size": "2106"}]}}}}}, {"name": "StatefulPartitionedCall/SelectV2_74/t", "op": "Const", "attr": {"value": {"tensor": {"dtype": "DT_FLOAT", "tensorShape": {}}}, "dtype": {"type": "DT_FLOAT"}}}, {"name": "StatefulPartitionedCall/decoder/dense_3/Tensordot_37/Const", "op": "Const", "attr": {"dtype": {"type": "DT_INT32"}, "value": {"tensor": {"dtype": "DT_INT32", "tensorShape": {"dim": [{"size": "1"}]}}}}}, {"name": "StatefulPartitionedCall/decoder/dense_3/Tensordot_37/axes", "op": "Const", "attr": {"dtype": {"type": "DT_INT32"}, "value": {"tensor": {"dtype": "DT_INT32", "tensorShape": {"dim": [{"size": "1"}]}}}}}, {"name": "StatefulPartitionedCall/decoder/dense_3/Tensordot_37/GatherV2_1/axis", "op": "Const", "attr": {"dtype": {"type": "DT_INT32"}, "value": {"tensor": {"dtype": "DT_INT32", "tensorShape": {}}}}}, {"name": "StatefulPartitionedCall/decoder/dense_3/Tensordot_37/Const_1", "op": "Const", "attr": {"value": {"tensor": {"dtype": "DT_INT32", "tensorShape": {"dim": [{"size": "1"}]}}}, "dtype": {"type": "DT_INT32"}}}, {"name": "StatefulPartitionedCall/decoder/dense_3/Tensordot_37/ReadVariableOp", "op": "Const", "attr": {"dtype": {"type": "DT_FLOAT"}, "value": {"tensor": {"dtype": "DT_FLOAT", "tensorShape": {"dim": [{"size": "1024"}, {"size": "2106"}]}}}}}, {"name": "StatefulPartitionedCall/decoder/dense_2/Tensordot_37/Const", "op": "Const", "attr": {"dtype": {"type": "DT_INT32"}, "value": {"tensor": {"dtype": "DT_INT32", "tensorShape": {"dim": [{"size": "1"}]}}}}}, {"name": "StatefulPartitionedCall/decoder/dense_2/Tensordot_37/axes", "op": "Const", "attr": {"dtype": {"type": "DT_INT32"}, "value": {"tensor": {"dtype": "DT_INT32", "tensorShape": {"dim": [{"size": "1"}]}}}}}, {"name": "StatefulPartitionedCall/decoder/dense_2/Tensordot_37/GatherV2_1/axis", "op": "Const", "attr": {"dtype": {"type": "DT_INT32"}, "value": {"tensor": {"dtype": "DT_INT32", "tensorShape": {}}}}}, {"name": "StatefulPartitionedCall/decoder/dense_2/Tensordot_37/Const_1", "op": "Const", "attr": {"dtype": {"type": "DT_INT32"}, "value": {"tensor": {"dtype": "DT_INT32", "tensorShape": {"dim": [{"size": "1"}]}}}}}, {"name": "StatefulPartitionedCall/decoder/dense_2/Tensordot_37/ReadVariableOp", "op": "Const", "attr": {"dtype": {"type": "DT_FLOAT"}, "value": {"tensor": {"dtype": "DT_FLOAT", "ten…
mples", "shape": [], "dtype": "int32"}, {"name": "StatefulPartitionedCall/decoder/embedding_1/embedding_lookup_44/axis", "shape": [], "dtype": "int32"}, {"name": "StatefulPartitionedCall/decoder/gru_1/PartitionedCall_44/transpose/perm", "shape": [3], "dtype": "int32"}, {"name": "StatefulPartitionedCall/decoder/gru_1/PartitionedCall_44/strided_slice/stack", "shape": [1], "dtype": "int32"}, {"name": "StatefulPartitionedCall/decoder/gru_1/PartitionedCall_44/strided_slice/stack_1", "shape": [1], "dtype": "int32"}, {"name": "StatefulPartitionedCall/decoder/gru_1/PartitionedCall_44/strided_slice/stack_2", "shape": [1], "dtype": "int32"}, {"name": "StatefulPartitionedCall/decoder/gru_1/PartitionedCall_44/while/loop_counter", "shape": [], "dtype": "int32"}, {"name": "StatefulPartitionedCall/decoder/gru_1/PartitionedCall_44/TensorArrayV2Stack/TensorListStack/element_shape", "shape": [2], "dtype": "int32"}, {"name": "StatefulPartitionedCall/decoder/gru_1/PartitionedCall_44/transpose_1/perm", "shape": [3], "dtype": "int32"}, {"name": "StatefulPartitionedCall/decoder/concat_44/axis", "shape": [], "dtype": "int32"}, {"name": "StatefulPartitionedCall/decoder/dense_2/Tensordot_44/free", "shape": [2], "dtype": "int32"}, {"name": "StatefulPartitionedCall/decoder/dense_2/Tensordot_44/GatherV2/axis", "shape": [], "dtype": "int32"}, {"name": "StatefulPartitionedCall/decoder/dense_2/Tensordot_44/Const_2", "shape": [1], "dtype": "int32"}, {"name": "StatefulPartitionedCall/decoder/dense_2/Tensordot_44/concat_1/axis", "shape": [], "dtype": "int32"}, {"name": "StatefulPartitionedCall/decoder/dense_3/Tensordot_44/free", "shape": [2], "dtype": "int32"}, {"name": "StatefulPartitionedCall/decoder/dense_3/Tensordot_44/GatherV2/axis", "shape": [], "dtype": "int32"}, {"name": "StatefulPartitionedCall/decoder/dense_3/Tensordot_44/Const_2", "shape": [1], "dtype": "int32"}, {"name": "StatefulPartitionedCall/decoder/dense_3/Tensordot_44/concat_1/axis", "shape": [], "dtype": "int32"}, {"name": "StatefulPartitionedCall/decoder/dense_3/BiasAdd_44/ReadVariableOp", "shape": [2106], "dtype": "float32"}, {"name": "StatefulPartitionedCall/categorical_44/Multinomial/num_samples", "shape": [], "dtype": "int32"}, {"name": "StatefulPartitionedCall/decoder/embedding_1/embedding_lookup_45/axis", "shape": [], "dtype": "int32"}, {"name": "StatefulPartitionedCall/decoder/gru_1/PartitionedCall_45/transpose/perm", "shape": [3], "dtype": "int32"}, {"name": "StatefulPartitionedCall/decoder/gru_1/PartitionedCall_45/strided_slice/stack", "shape": [1], "dtype": "int32"}, {"name": "StatefulPartitionedCall/decoder/gru_1/PartitionedCall_45/strided_slice/stack_1", "shape": [1], "dtype": "int32"}, {"name": "StatefulPartitionedCall/decoder/gru_1/PartitionedCall_45/strided_slice/stack_2", "shape": [1], "dtype": "int32"}, {"name": "StatefulPartitionedCall/decoder/gru_1/PartitionedCall_45/while/loop_counter", "shape": [], "dtype": "int32"}, {"name": "StatefulPartitionedCall/decoder/gru_1/PartitionedCall_45/TensorArrayV2Stack/TensorListStack/element_shape", "shape": [2], "dtype": "int32"}, {"name": "StatefulPartitionedCall/decoder/gru_1/PartitionedCall_45/transpose_1/perm", "shape": [3], "dtype": "int32"}, {"name": "StatefulPartitionedCall/decoder/concat_45/axis", "shape": [], "dtype": "int32"}, {"name": "StatefulPartitionedCall/decoder/dense_2/Tensordot_45/free", "shape": [2], "dtype": "int32"}, {"name": "StatefulPartitionedCall/decoder/dense_2/Tensordot_45/GatherV2/axis", "shape": [], "dtype": "int32"}, {"name": "StatefulPartitionedCall/decoder/dense_2/Tensordot_45/Const_2", "shape": [1], "dtype": "int32"}, {"name": "StatefulPartitionedCall/decoder/dense_2/Tensordot_45/concat_1/axis", "shape": [], "dtype": "int32"}, {"name": "StatefulPartitionedCall/decoder/dense_3/Tensordot_45/free", "shape": [2], "dtype": "int32"}, {"name": "StatefulPartitionedCall/decoder/dense_3/Tensordot_45/GatherV2/axis", "shape": [], "dtype": "int32"}, {"name": "StatefulPartitionedCall/decoder/dense_3/Tensordot_45/Const_2", "shape": [1], "dtype": "int32"}, {"name": "StatefulPartitionedCall/decoder/dense_3/Tensordot_45/concat_1/axis", "shape": [], "dtype": "int32"}, {"name": "StatefulPartitionedCall/decoder/dense_3/BiasAdd_45/ReadVariableOp", "shape": [2106], "dtype": "float32"}, {"name": "StatefulPartitionedCall/categorical_45/Multinomial/num_samples", "shape": [], "dtype": "int32"}, {"name": "StatefulPartitionedCall/decoder/embedding_1/embedding_lookup_46/axis", "shape": [], "dtype": "int32"}, {"name": "StatefulPartitionedCall/decoder/gru_1/PartitionedCall_46/transpose/perm", "shape": [3], "dtype": "int32"}, {"name": "StatefulPartitionedCall/decoder/gru_1/PartitionedCall_46/strided_slice/stack", "shape": [1], "dtype": "int32"}, {"name": "StatefulPartitionedCall/decoder/gru_1/PartitionedCall_46/strided_slice/stack_1", "shape": [1], "dtype": "int32"}, {"name": "StatefulPartitionedCall/decoder/gru_1/PartitionedCall_46/strided_slice/stack_2", "shape": [1], "dtype": "int32"}, {"name": "StatefulPartitionedCall/decoder/gru_1/PartitionedCall_46/while/loop_counter", "shape": [], "dtype": "int32"}, {"name": "StatefulPartitionedCall/decoder/gru_1/PartitionedCall_46/TensorArrayV2Stack/TensorListStack/element_shape", "shape": [2], "dtype": "int32"}, {"name": "StatefulPartitionedCall/decoder/gru_1/PartitionedCall_46/transpose_1/perm", "shape": [3], "dtype": "int32"}, {"name": "StatefulPartitionedCall/decoder/concat_46/axis", "shape": [], "dtype": "int32"}, {"name": "StatefulPartitionedCall/decoder/dense_2/Tensordot_46/free", "shape": [2], "dtype": "int32"}, {"name": "StatefulPartitionedCall/decoder/dense_2/Tensordot_46/GatherV2/axis", "shape": [], "dtype": "int32"}, {"name": "StatefulPartitionedCall/decoder/dense_2/Tensordot_46/Const_2", "shape": [1], "dtype": "int32"}, {"name": "StatefulPartitionedCall/decoder/dense_2/Tensordot_46/concat_1/axis", "shape": [], "dtype": "int32"}, {"name": "StatefulPartitionedCall/decoder/dense_3/Tensordot_46/free", "shape": [2], "dtype": "int32"}, {"name": "StatefulPartitionedCall/decoder/dense_3/Tensordot_46/GatherV2/axis", "shape": [], "dtype": "int32"}, {"name": "StatefulPartitionedCall/decoder/dense_3/Tensordot_46/Const_2", "shape": [1], "dtype": "int32"}, {"name": "StatefulPartitionedCall/decoder/dense_3/Tensordot_46/concat_1/axis", "shape": [], "dtype": "int32"}, {"name": "StatefulPartitionedCall/decoder/dense_3/BiasAdd_46/ReadVariableOp", "shape": [2106], "dtype": "float32"}, {"name": "StatefulPartitionedCall/categorical_46/Multinomial/num_samples", "shape": [], "dtype": "int32"}, {"name": "StatefulPartitionedCall/decoder/embedding_1/embedding_lookup_47/axis", "shape": [], "dtype": "int32"}, {"name": "StatefulPartitionedCall/decoder/gru_1/PartitionedCall/while/body/_546/while/sub/x", "shape": [], "dtype": "float32"}, {"name": "StatefulPartitionedCall/decoder/gru_1/PartitionedCall/while/body/_546/while/split/split_dim", "shape": [], "dtype": "int32"}, {"name": "StatefulPartitionedCall/decoder/gru_1/PartitionedCall/while/body/_546/while/TensorArrayV2Read/TensorListGetItem/element_shape", "shape": [2], "dtype": "int32"}, {"name": "StatefulPartitionedCall/decoder/gru_1/PartitionedCall/while/body/_546/while/split_1/split_dim", "shape": [], "dtype": "int32"}, {"name": "StatefulPartitionedCall/decoder/gru_1/PartitionedCall/while/body/_546/while/add_4/y", "shape": [], "dtype": "int32"}, {"name": "StatefulPartitionedCall/decoder/gru_1/PartitionedCall/while/body/_546/while/add_5/y", "shape": [], "dtype": "int32"}, {"name": "StatefulPartitionedCall/encoder/gru/PartitionedCall/while/body/_486/while/sub/x", "shape": [], "dtype": "float32"}, {"name": "StatefulPartitionedCall/encoder/gru/PartitionedCall/while/body/_486/while/split/split_dim", "shape": [], "dtype": "int32"}, {"name": "StatefulPartitionedCall/encoder/gru/PartitionedCall/while/body/_486/while/TensorArrayV2Read/TensorListGetItem/element_shape", "shape": [2], "dtype": "int32"}, {"name": "StatefulPartitionedCall/encoder/gru/PartitionedCall/while/body/_486/while/split_1/split_dim", "shape": [], "dtype": "int32"}, {"name": "StatefulPartitionedCall/encoder/gru/PartitionedCall/while/body/_486/while/add_4/y", "shape": [], "dtype": "int32"}, {"name": "StatefulPartitionedCall/encoder/gru/PartitionedCall/while/body/_486/while/add_5/y", "shape": [], "dtype": "int32"}, {"name": "StatefulPartitionedCall/decoder/gru_1/PartitionedCall_1/while/body/_606/while/sub/x", "shape": [], "dtype": "float32"}, {"name": "StatefulPartitionedCall/decoder/gru_1/PartitionedCall_1/while/body/_606/while/split/split_dim", "shape": [], "dtype": "int32"}, {"name": "StatefulPartitionedCall/decoder/gru_1/PartitionedCall_1/while/body/_606/while/TensorArrayV2Read/TensorListGetItem/element_shape", "shape": [2], "dtype": "int32"}, {"name": "StatefulPartitionedCall/decoder/gru_1/PartitionedCall_1/while/body/_606/while/split_1/split_dim", "shape": [], "dtype": "int32"}, {"name": "StatefulPartitionedCall/decoder/gru_1/PartitionedCall_1/while/body/_606/while/add_4/y", "shape": [], "dtype": "int32"}, {"name": "StatefulPartitionedCall/decoder/gru_1/PartitionedCall_1/while/body/_606/while/add_5/y", "shape": [], "dtype": "int32"}, {"name": "StatefulPartitionedCall/decoder/gru_1/PartitionedCall_2/while/body/_666/while/sub/x", "shape": [], "dtype": "float32"}, {"name": "StatefulPartitionedCall/decoder/gru_1/PartitionedCall_2/while/body/_666/while/split/split_dim", "shape": [], "dtype": "int32"}, {"name": "StatefulPartitionedCall/decoder/gru_1/PartitionedCall_2/while/body/_666/while/TensorArrayV2Read/TensorListGetItem/element_shape", "shape": [2], "dtype": "int32"}, {"name": "StatefulPartitionedCall/decoder/gru_1/PartitionedCall_2/while/body/_666/while/split_1/split_dim", "shape": [], "dtype": "int32"}, {"name": "StatefulPartitionedCall/decoder/gru_1/PartitionedCall_2/while/body/_666/while/add_4/y", "shape": [], "dtype": "int32"}, {"name": "StatefulPartitionedCall/decoder/gru_1/PartitionedCall_2/while/body/_666/while/add_5/y", "shape": [], "dtype": "int32"}, {"name": "StatefulPartitionedCall/decoder/gru_1/PartitionedCall_3/while/body/_726/while/sub/x", "shape": [], "dtype": "float32"}, {"name": "StatefulPartitionedCall/decoder/gru_1/PartitionedCall_3/while/body/_726/while/split/split_dim", "shape": [], "dtype": "int32"}, {"name": "StatefulPartitionedCall/decoder/gru_1/PartitionedCall_3/while/body/_726/while/TensorArrayV2Read/TensorListGetItem/element_shape", "shape": [2], "dtype": "int32"}, {"name": "StatefulPartitionedCall/decoder/gru_1/PartitionedCall_3/while/body/_726/while/split_1/split_dim", "shape": [], "dtype": "int32"}, {"name": "StatefulPartitionedCall/decoder/gru_1/PartitionedCall_3/while/body/_726/while/add_4/y", "shape": [], "dtype": "int32"}, {"name": "StatefulPartitionedCall/decoder/gru_1/PartitionedCall_3/while/body/_726/while/add_5/y", "shape": [], "dtype": "int32"}, {"name": "StatefulPartitionedCall/decoder/gru_1/PartitionedCall_4/while/body/_786/while/sub/x", "shape": [], "dtype": "float32"}, {"name": "StatefulPartitionedCall/decoder/gru_1/PartitionedCall_4/while/body/_786/while/split/split_dim", "shape": [], "dtype": "int32"}, {"name": "StatefulPartitionedCall/decoder/gru_1/PartitionedCall_4/while/body/_786/while/TensorArrayV2Read/TensorListGetItem/element_shape", "shape": [2], "dtype": "int32"}, {"name": "StatefulPartitionedCall/decoder/gru_1/PartitionedCall_4/while/body/_786/while/split_1/split_dim", "shape": [], "dtype": "int32"}, {"name": "StatefulPartitionedCall/decoder/gru_1/PartitionedCall_4/while/body/_786/while/add_4/y", "shape": [], "dtype": "int32"}, {"name": "StatefulPartitionedCall/decoder/gru_1/PartitionedCall_4/while/body/_786/while/add_5/y", "shape": [], "dtype": "int32"}, {"name": "StatefulPartitionedCall/decoder/gru_1/PartitionedCall_5/while/body/_846/while/sub/x", "shape": [], "dtype": "float32"}, {"name": "StatefulPartitionedCall/decoder/gru_1/PartitionedCall_5/while/body/_846/while/split/split_dim", "shape": [], "dtype": "int32"}, {"name": "StatefulPartitionedCall/decoder/gru_1/PartitionedCall_5/while/body/_846/while/TensorArrayV2Read/TensorListGetItem/element_shape", "shape": [2], "dtype": "int32"}, {"name": "StatefulPartitionedCall/decoder/gru_1/PartitionedCall_5/while/body/_846/while/split_1/split_dim", "shape": [], "dtype": "int32"}, {"name": "StatefulPartitionedCall/decoder/gru_1/PartitionedCall_5/while/body/_846/while/add_4/y", "shape": [], "dtype": "int32"}, {"name": "StatefulPartitionedCall/decoder/gru_1/PartitionedCall_5/while/body/_846/while/add_5/y", "shape": [], "dtype": "int32"}, {"name": "StatefulPartitionedCall/decoder/gru_1/PartitionedCall_6/while/body/_906/while/sub/x", "shape": [], "dtype": "float32"}, {"name": "StatefulPartitionedCall/decoder/gru_1/PartitionedCall_6/while/body/_906/while/split/split_dim", "shape": [], "dtype": "int32"}, {"name": "StatefulPartitionedCall/decoder/gru_1/PartitionedCall_6/while/body/_906/while/TensorArrayV2Read/TensorListGetItem/element_shape", "shape": [2], "dtype": "int32"}, {"name": "StatefulPartitionedCall/decoder/gru_1/PartitionedCall_6/while/body/_906/while/split_1/split_dim", "shape": [], "dtype": "int32"}, {"name": "StatefulPartitionedCall/decoder/gru_1/PartitionedCall_6/while/body/_906/while/add_4/y", "shape": [], "dtype": "int32"}, {"name": "StatefulPartitionedCall/decoder/gru_1/PartitionedCall_6/while/body/_906/while/add_5/y", "shape": [], "dtype": "int32"}, {"name": "StatefulPartitionedCall/decoder/gru_1/PartitionedCall_7/while/body/_966/while/sub/x", "shape": [], "dtype": "float32"}, {"name": "StatefulPartitionedCall/decoder/gru_1/PartitionedCall_7/while/body/_966/while/split/split_dim", "shape": [], "dtype": "int32"}, {"name": "StatefulPartitionedCall/decoder/gru_1/PartitionedCall_7/while/body/_966/while/TensorArrayV2Read/TensorListGetItem/element_shape", "shape": [2], "dtype": "int32"}, {"name": "StatefulPartitionedCall/decoder/gru_1/PartitionedCall_7/while/body/_966/while/split_1/split_dim", "shape": [], "dtype": "int32"}, {"name": "StatefulPartitionedCall/decoder/gru_1/PartitionedCall_7/while/body/_966/while/add_4/y", "shape": [], "dtype": "int32"}, {"name": "StatefulPartitionedCall/decoder/gru_1/PartitionedCall_7/while/body/_966/while/add_5/y", "shape": [], "dtype": "int32"}, {"name": "StatefulPartitionedCall/decoder/gru_1/PartitionedCall_8/while/body/_1026/while/sub/x", "shape": [], "dtype": "float32"}, {"name": "StatefulPartitionedCall/decoder/gru_1/PartitionedCall_8/while/body/_1026/while/split/split_dim", "shape": [], "dtype": "int32"}, {"name": "StatefulPartitionedCall/decoder/gru_1/PartitionedCall_8/while/body/_1026/while/TensorArrayV2Read/TensorListGetItem/element_shape", "shape": [2], "dtype": "int32"}, {"name": "StatefulPartitionedCall/decoder/gru_1/PartitionedCall_8/while/body/_1026/while/split_1/split_dim", "shape": [], "dtype": "int32"}, {"name": "StatefulPartitionedCall/decoder/gru_1/PartitionedCall_8/while/body/_1026/while/add_4/y", "shape": [], "dtype": "int32"}, {"name": "StatefulPartitionedCall/decoder/gru_1/PartitionedCall_8/while/body/_1026/while/add_5/y", "shape": [], "dtype": "int32"}, {"name": "StatefulPartitionedCall/decoder/gru_1/PartitionedCall_9/while/body/_1086/while/sub/x", "shape": [], "dtype": "float32"}, {"name": "StatefulPartitionedCall/decoder/gru_1/PartitionedCall_9/while/body/_1086/while/split/split_dim", "shape": [], "dtype": "int32"}, {"name": "StatefulPartitionedCall/decoder/gru_1/PartitionedCall_9/while/body/_1086/while/TensorArrayV2Read/TensorListGetItem/element_shape", "shape": [2], "dtype": "int32"}, {"name": "StatefulPartitionedCall/decoder/gru_1/PartitionedCall_9/while/body/_1086/while/split_1/split_dim", "shape": [], "dtype": "int32"}, {"name": "StatefulPartitionedCall/decoder/gru_1/PartitionedCall_9/while/body/_1086/while/add_4/y", "shape": [], "dtype": "int32"}, {"name": "StatefulPartitionedCall/decoder/gru_1/PartitionedCall_9/while/body/_1086/while/add_5/y", "shape": [], "dtype": "int32"}, {"name": "StatefulPartitionedCall/decoder/gru_1/PartitionedCall_10/while/body/_1146/while/sub/x", "shape": [], "dtype": "float32"}, {"name": "StatefulPartitionedCall/decoder/gru_1/PartitionedCall_10/while/body/_1146/while/split/split_dim", "shape": [], "dtype": "int32"}, {"name": "StatefulPartitionedCall/decoder/gru_1/PartitionedCall_10/while/body/_1146/while/TensorArrayV2Read/TensorListGetItem/element_shape", "shape": [2], "dtype": "int32"}, {"name": "StatefulPartitionedCall/decoder/gru_1/PartitionedCall_10/while/body/_1146/while/split_1/split_dim", "shape": [], "dtype": "int32"}, {"name": "StatefulPartitionedCall/decoder/gru_1/PartitionedCall_10/while/body/_1146/while/add_4/y", "shape": [], "dtype": "int32"}, {"name": "StatefulPartitionedCall/decoder/gru_1/PartitionedCall_10/while/body/_1146/while/add_5/y", "shape": [], "dtype": "int32"}, {"name": "StatefulPartitionedCall/decoder/gru_1/PartitionedCall_11/while/body/_1206/while/sub/x", "shape": [], "dtype": "float32"}, {"name": "StatefulPartitionedCall/decoder/gru_1/PartitionedCall_11/while/body/_1206/while/split/split_dim", "shape": [], "dtype": "int32"}, {"name": "StatefulPartitionedCall/decoder/gru_1/PartitionedCall_11/while/body/_1206/while/TensorArrayV2Read/TensorListGetItem/element_shape", "shape": [2], "dtype": "int32"}, {"name": "StatefulPartitionedCall/decoder/gru_1/PartitionedCall_11/while/body/_1206/while/split_1/split_dim", "shape": [], "dtype": "int32"}, {"name": "StatefulPartitionedCall/decoder/gru_1/PartitionedCall_11/while/body/_1206/while/add_4/y", "shape": [], "dtype": "int32"}, {"name": "StatefulPartitionedCall/decoder/gru_1/PartitionedCall_11/while/body/_1206/while/add_5/y", "shape": [], "dtype": "int32"}, {"name": "StatefulPartitionedCall/decoder/gru_1/PartitionedCall_12/while/body/_1266/while/sub/x", "shape": [], "dtype": "float32"}, {"name": "StatefulPartitionedCall/decoder/gru_1/PartitionedCall_12/while/body/_1266/while/split/split_dim", "shape": [], "dtype": "int32"}, {"name": "StatefulPartitionedCall/decoder/gru_1/PartitionedCall_12/while/body/_1266/while/TensorArrayV2Read/TensorListGetItem/element_shape", "shape": [2], "dtype": "int32"}, {"name": "StatefulPartitionedCall/decoder/gru_1/PartitionedCall_12/while/body/_1266/while/split_1/split_dim", "shape": [], "dtype": "int32"}, {"name": "StatefulPartitionedCall/decoder/gru_1/PartitionedCall_12/while/body/_1266/while/add_4/y", "shape": [], "dtype": "int32"}, {"name": "StatefulPartitionedCall/decoder/gru_1/PartitionedCall_12/while/body/_1266/while/add_5/y", "shape": [], "dtype": "int32"}, {"name": "StatefulPartitionedCall/decoder/gru_1/PartitionedCall_13/while/body/_1326/while/sub/x", "shape": [], "dtype": "float32"}, {"name": "StatefulPartitionedCall/decoder/gru_1/PartitionedCall_13/while/body/_1326/while/split/split_dim", "shape": [], "dtype": "int32"}, {"name": "StatefulPartitionedCall/decoder/gru_1/PartitionedCall_13/while/body/_1326/while/TensorArrayV2Read/TensorListGetItem/element_shape", "shape": [2], "dtype": "int32"}, {"name": "StatefulPartitionedCall/decoder/gru_1/PartitionedCall_13/while/body/_1326/while/split_1/split_dim", "shape": [], "dtype": "int32"}, {"name": "StatefulPartitionedCall/decoder/gru_1/PartitionedCall_13/while/body/_1326/while/add_4/y", "shape": [], "dtype": "int32"}, {"name": "StatefulPartitionedCall/decoder/gru_1/PartitionedCall_13/while/body/_1326/while/add_5/y", "shape": [], "dtype": "int32"}, {"name": "StatefulPartitionedCall/decoder/gru_1/PartitionedCall_14/while/body/_1386/while/sub/x", "shape": [], "dtype": "float32"}, {"name": "StatefulPartitionedCall/decoder/gru_1/PartitionedCall_14/while/body/_1386/while/split/split_dim", "shape": [], "dtype": "int32"}, {"name": "StatefulPartitionedCall/decoder/gru_1/PartitionedCall_14/while/body/_1386/while/TensorArrayV2Read/TensorListGetItem/element_shape", "shape": [2], "dtype": "int32"}, {"name": "StatefulPartitionedCall/decoder/gru_1/PartitionedCall_14/while/body/_1386/while/split_1/split_dim", "shape": [], "dtype": "int32"}, {"name": "StatefulPartitionedCall/decoder/gru_1/PartitionedCall_14/while/body/_1386/while/add_4/y", "shape": [], "dtype": "int32"}, {"name": "StatefulPartitionedCall/decoder/gru_1/PartitionedCall_14/while/body/_1386/while/add_5/y", "shape": [], "dtype": "int32"}, {"name": "StatefulPartitionedCall/decoder/gru_1/PartitionedCall_15/while/body/_1446/while/sub/x", "shape": [], "dtype": "float32"}, {"name": "StatefulPartitionedCall/decoder/gru_1/PartitionedCall_15/while/body/_1446/while/split/split_dim", "shape": [], "dtype": "int32"}, {"name": "StatefulPartitionedCall/decoder/gru_1/PartitionedCall_15/while/body/_1446/while/TensorArrayV2Read/TensorListGetItem/element_shape", "shape": [2], "dtype": "int32"}, {"name": "StatefulPartitionedCall/decoder/gru_1/PartitionedCall_15/while/body/_1446/while/split_1/split_dim", "shape": [], "dtype": "int32"}, {"name": "StatefulPartitionedCall/decoder/gru_1/PartitionedCall_15/while/body/_1446/while/add_4/y", "shape": [], "dtype": "int32"}, {"name": "StatefulPartitionedCall/decoder/gru_1/PartitionedCall_15/while/body/_1446/while/add_5/y", "shape": [], "dtype": "int32"}, {"name": "StatefulPartitionedCall/decoder/gru_1/PartitionedCall_16/while/body/_1506/while/sub/x", "shape": [], "dtype": "float32"}, {"name": "StatefulPartitionedCall/decoder/gru_1/PartitionedCall_16/while/body/_1506/while/split/split_dim", "shape": [], "dtype": "int32"}, {"name": "StatefulPartitionedCall/decoder/gru_1/PartitionedCall_16/while/body/_1506/while/TensorArrayV2Read/TensorListGetItem/element_shape", "shape": [2], "dtype": "int32"}, {"name": "StatefulPartitionedCall/decoder/gru_1/PartitionedCall_16/while/body/_1506/while/split_1/split_dim", "shape": [], "dtype": "int32"}, {"name": "StatefulPartitionedCall/decoder/gru_1/PartitionedCall_16/while/body/_1506/while/add_4/y", "shape": [], "dtype": "int32"}, {"name": "StatefulPartitionedCall/decoder/gru_1/PartitionedCall_16/while/body/_1506/while/add_5/y", "shape": [], "dtype": "int32"}, {"name": "StatefulPartitionedCall/decoder/gru_1/PartitionedCall_17/while/body/_1566/while/sub/x", "shape": [], "dtype": "float32"}, {"name": "StatefulPartitionedCall/decoder/gru_1/PartitionedCall_17/while/body/_1566/while/split/split_dim", "shape": [], "dtype": "int32"}, {"name": "StatefulPartitionedCall/decoder/gru_1/PartitionedCall_17/while/body/_1566/while/TensorArrayV2Read/TensorListGetItem/element_shape", "shape": [2], "dtype": "int32"}, {"name": "StatefulPartitionedCall/decoder/gru_1/PartitionedCall_17/while/body/_1566/while/split_1/split_dim", "shape": [], "dtype": "int32"}, {"name": "StatefulPartitionedCall/decoder/gru_1/PartitionedCall_17/while/body/_1566/while/add_4/y", "shape": [], "dtype": "int32"}, {"name": "StatefulPartitionedCall/decoder/gru_1/PartitionedCall_17/while/body/_1566/while/add_5/y", "shape": [], "dtype": "int32"}, {"name": "StatefulPartitionedCall/decoder/gru_1/PartitionedCall_18/while/body/_1626/while/sub/x", "shape": [], "dtype": "float32"}, {"name": "StatefulPartitionedCall/decoder/gru_1/PartitionedCall_18/while/body/_1626/while/split/split_dim", "shape": [], "dtype": "int32"}, {"name": "StatefulPartitionedCall/decoder/gru_1/PartitionedCall_18/while/body/_1626/while/TensorArrayV2Read/TensorListGetItem/element_shape", "shape": [2], "dtype": "int32"}, {"name": "StatefulPartitionedCall/decoder/gru_1/PartitionedCall_18/while/body/_1626/while/split_1/split_dim", "shape": [], "dtype": "int32"}, {"name": "StatefulPartitionedCall/decoder/gru_1/PartitionedCall_18/while/body/_1626/while/add_4/y", "shape": [], "dtype": "int32"}, {"name": "StatefulPartitionedCall/decoder/gru_1/PartitionedCall_18/while/body/_1626/while/add_5/y", "shape": [], "dtype": "int32"}, {"name": "StatefulPartitionedCall/decoder/gru_1/PartitionedCall_19/while/body/_1686/while/sub/x", "shape": [], "dtype": "float32"}, {"name": "StatefulPartitionedCall/decoder/gru_1/PartitionedCall_19/while/body/_1686/while/split/split_dim", "shape": [], "dtype": "int32"}, {"name": "StatefulPartitionedCall/decoder/gru_1/PartitionedCall_19/while/body/_1686/while/TensorArrayV2Read/TensorListGetItem/element_shape", "shape": [2], "dtype": "int32"}, {"name": "StatefulPartitionedCall/decoder/gru_1/PartitionedCall_19/while/body/_1686/while/split_1/split_dim", "shape": [], "dtype": "int32"}, {"name": "StatefulPartitionedCall/decoder/gru_1/PartitionedCall_19/while/body/_1686/while/add_4/y", "shape": [], "dtype": "int32"}, {"name": "StatefulPartitionedCall/decoder/gru_1/PartitionedCall_19/while/body/_1686/while/add_5/y", "shape": [], "dtype": "int32"}, {"name": "StatefulPartitionedCall/decoder/gru_1/PartitionedCall_20/while/body/_1746/while/sub/x", "shape": [], "dtype": "float32"}, {"name": "StatefulPartitionedCall/decoder/gru_1/PartitionedCall_20/while/body/_1746/while/split/split_dim", "shape": [], "dtype": "int32"}, {"name": "StatefulPartitionedCall/decoder/gru_1/PartitionedCall_20/while/body/_1746/while/TensorArrayV2Read/TensorListGetItem/element_shape", "shape": [2], "dtype": "int32"}, {"name": "StatefulPartitionedCall/decoder/gru_1/PartitionedCall_20/while/body/_1746/while/split_1/split_dim", "shape": [], "dtype": "int32"}, {"name": "StatefulPartitionedCall/decoder/gru_1/PartitionedCall_20/while/body/_1746/while/add_4/y", "shape": [], "dtype": "int32"}, {"name": "StatefulPartitionedCall/decoder/gru_1/PartitionedCall_20/while/body/_1746/while/add_5/y", "shape": [], "dtype": "int32"}, {"name": "StatefulPartitionedCall/decoder/gru_1/PartitionedCall_21/while/body/_1806/while/sub/x", "shape": [], "dtype": "float32"}, {"name": "StatefulPartitionedCall/decoder/gru_1/PartitionedCall_21/while/body/_1806/while/split/split_dim", "shape": [], "dtype": "int32"}, {"name": "StatefulPartitionedCall/decoder/gru_1/PartitionedCall_21/while/body/_1806/while/TensorArrayV2Read/TensorListGetItem/element_shape", "shape": [2], "dtype": "int32"}, {"name": "StatefulPartitionedCall/decoder/gru_1/PartitionedCall_21/while/body/_1806/while/split_1/split_dim", "shape": [], "dtype": "int32"}, {"name": "StatefulPartitionedCall/decoder/gru_1/PartitionedCall_21/while/body/_1806/while/add_4/y", "shape": [], "dtype": "int32"}, {"name": "StatefulPartitionedCall/decoder/gru_1/PartitionedCall_21/while/body/_1806/while/add_5/y", "shape": [], "dtype": "int32"}, {"name": "StatefulPartitionedCall/decoder/gru_1/PartitionedCall_22/while/body/_1866/while/sub/x", "shape": [], "dtype": "float32"}, {"name": "StatefulPartitionedCall/decoder/gru_1/PartitionedCall_22/while/body/_1866/while/split/split_dim", "shape": [], "dtype": "int32"}, {"name": "StatefulPartitionedCall/decoder/gru_1/PartitionedCall_22/while/body/_1866/while/TensorArrayV2Read/TensorListGetItem/element_shape", "shape": [2], "dtype": "int32"}, {"name": "StatefulPartitionedCall/decoder/gru_1/PartitionedCall_22/while/body/_1866/while/split_1/split_dim", "shape": [], "dtype": "int32"}, {"name": "StatefulPartitionedCall/decoder/gru_1/PartitionedCall_22/while/body/_1866/while/add_4/y", "shape": [], "dtype": "int32"}, {"name": "StatefulPartitionedCall/decoder/gru_1/PartitionedCall_22/while/body/_1866/while/add_5/y", "shape": [], "dtype": "int32"}, {"name": "StatefulPartitionedCall/decoder/gru_1/PartitionedCall_23/while/body/_1926/while/sub/x", "shape": [], "dtype": "float32"}, {"name": "StatefulPartitionedCall/decoder/gru_1/PartitionedCall_23/while/body/_1926/while/split/split_dim", "shape": [], "dtype": "int32"}, {"name": "StatefulPartitionedCall/decoder/gru_1/PartitionedCall_23/while/body/_1926/while/TensorArrayV2Read/TensorListGetItem/element_shape", "shape": [2], "dtype": "int32"}, {"name": "StatefulPartitionedCall/decoder/gru_1/PartitionedCall_23/while/body/_1926/while/split_1/split_dim", "shape": [], "dtype": "int32"}, {"name": "StatefulPartitionedCall/decoder/gru_1/PartitionedCall_23/while/body/_1926/while/add_4/y", "shape": [], "dtype": "int32"}, {"name": "StatefulPartitionedCall/decoder/gru_1/PartitionedCall_23/while/body/_1926/while/add_5/y", "shape": [], "dtype": "int32"}, {"name": "StatefulPartitionedCall/decoder/gru_1/PartitionedCall_24/while/body/_1986/while/sub/x", "shape": [], "dtype": "float32"}, {"name": "StatefulPartitionedCall/decoder/gru_1/PartitionedCall_24/while/body/_1986/while/split/split_dim", "shape": [], "dtype": "int32"}, {"name": "StatefulPartitionedCall/decoder/gru_1/PartitionedCall_24/while/body/_1986/while/TensorArrayV2Read/TensorListGetItem/element_shape", "shape": [2], "dtype": "int32"}, {"name": "StatefulPartitionedCall/decoder/gru_1/PartitionedCall_24/while/body/_1986/while/split_1/split_dim", "shape": [], "dtype": "int32"}, {"name": "StatefulPartitionedCall/decoder/gru_1/PartitionedCall_24/while/body/_1986/while/add_4/y", "shape": [], "dtype": "int32"}, {"name": "StatefulPartitionedCall/decoder/gru_1/PartitionedCall_24/while/body/_1986/while/add_5/y", "shape": [], "dtype": "int32"}, {"name": "StatefulPartitionedCall/decoder/gru_1/PartitionedCall_25/while/body/_2046/while/sub/x", "shape": [], "dtype": "float32"}, {"name": "StatefulPartitionedCall/decoder/gru_1/PartitionedCall_25/while/body/_2046/while/split/split_dim", "shape": [], "dtype": "int32"}, {"name": "StatefulPartitionedCall/decoder/gru_1/PartitionedCall_25/while/body/_2046/while/TensorArrayV2Read/TensorListGetItem/element_shape", "shape": [2], "dtype": "int32"}, {"name": "StatefulPartitionedCall/decoder/gru_1/PartitionedCall_25/while/body/_2046/while/split_1/split_dim", "shape": [], "dtype": "int32"}, {"name": "StatefulPartitionedCall/decoder/gru_1/PartitionedCall_25/while/body/_2046/while/add_4/y", "shape": [], "dtype": "int32"}, {"name": "StatefulPartitionedCall/decoder/gru_1/PartitionedCall_25/while/body/_2046/while/add_5/y", "shape": [], "dtype": "int32"}, {"name": "StatefulPartitionedCall/decoder/gru_1/PartitionedCall_26/while/body/_2106/while/sub/x", "shape": [], "dtype": "float32"}, {"name": "StatefulPartitionedCall/decoder/gru_1/PartitionedCall_26/while/body/_2106/while/split/split_dim", "shape": [], "dtype": "int32"}, {"name": "StatefulPartitionedCall/decoder/gru_1/PartitionedCall_26/while/body/_2106/while/TensorArrayV2Read/TensorListGetItem/element_shape", "shape": [2], "dtype": "int32"}, {"name": "StatefulPartitionedCall/decoder/gru_1/PartitionedCall_26/while/body/_2106/while/split_1/split_dim", "shape": [], "dtype": "int32"}, {"name": "StatefulPartitionedCall/decoder/gru_1/PartitionedCall_26/while/body/_2106/while/add_4/y", "shape": [], "dtype": "int32"}, {"name": "StatefulPartitionedCall/decoder/gru_1/PartitionedCall_26/while/body/_2106/while/add_5/y", "shape": [], "dtype": "int32"}, {"name": "StatefulPartitionedCall/decoder/gru_1/PartitionedCall_27/while/body/_2166/while/sub/x", "shape": [], "dtype": "float32"}, {"name": "StatefulPartitionedCall/decoder/gru_1/PartitionedCall_27/while/body/_2166/while/split/split_dim", "shape": [], "dtype": "int32"}, {"name": "StatefulPartitionedCall/decoder/gru_1/PartitionedCall_27/while/body/_2166/while/TensorArrayV2Read/TensorListGetItem/element_shape", "shape": [2], "dtype": "int32"}, {"name": "StatefulPartitionedCall/decoder/gru_1/PartitionedCall_27/while/body/_2166/while/split_1/split_dim", "shape": [], "dtype": "int32"}, {"name": "StatefulPartitionedCall/decoder/gru_1/PartitionedCall_27/while/body/_2166/while/add_4/y", "shape": [], "dtype": "int32"}, {"name": "StatefulPartitionedCall/decoder/gru_1/PartitionedCall_27/while/body/_2166/while/add_5/y", "shape": [], "dtype": "int32"}, {"name": "StatefulPartitionedCall/decoder/gru_1/PartitionedCall_28/while/body/_2226/while/sub/x", "shape": [], "dtype": "float32"}, {"name": "StatefulPartitionedCall/decoder/gru_1/PartitionedCall_28/while/body/_2226/while/split/split_dim", "shape": [], "dtype": "int32"}, {"name": "StatefulPartitionedCall/decoder/gru_1/PartitionedCall_28/while/body/_2226/while/TensorArrayV2Read/TensorListGetItem/element_shape", "shape": [2], "dtype": "int32"}, {"name": "StatefulPartitionedCall/decoder/gru_1/PartitionedCall_28/while/body/_2226/while/split_1/split_dim", "shape": [], "dtype": "int32"}, {"name": "StatefulPartitionedCall/decoder/gru_1/PartitionedCall_28/while/body/_2226/while/add_4/y", "shape": [], "dtype": "int32"}, {"name": "StatefulPartitionedCall/decoder/gru_1/PartitionedCall_28/while/body/_2226/while/add_5/y", "shape": [], "dtype": "int32"}, {"name": "StatefulPartitionedCall/decoder/gru_1/PartitionedCall_29/while/body/_2286/while/sub/x", "shape": [], "dtype": "float32"}, {"name": "StatefulPartitionedCall/decoder/gru_1/PartitionedCall_29/while/body/_2286/while/split/split_dim", "shape": [], "dtype": "int32"}, {"name": "StatefulPartitionedCall/decoder/gru_1/PartitionedCall_29/while/body/_2286/while/TensorArrayV2Read/TensorListGetItem/element_shape", "shape": [2], "dtype": "int32"}, {"name": "StatefulPartitionedCall/decoder/gru_1/PartitionedCall_29/while/body/_2286/while/split_1/split_dim", "shape": [], "dtype": "int32"}, {"name": "StatefulPartitionedCall/decoder/gru_1/PartitionedCall_29/while/body/_2286/while/add_4/y", "shape": [], "dtype": "int32"}, {"name": "StatefulPartitionedCall/decoder/gru_1/PartitionedCall_29/while/body/_2286/while/add_5/y", "shape": [], "dtype": "int32"}, {"name": "StatefulPartitionedCall/decoder/gru_1/PartitionedCall_30/while/body/_2346/while/sub/x", "shape": [], "dtype": "float32"}, {"name": "StatefulPartitionedCall/decoder/gru_1/PartitionedCall_30/while/body/_2346/while/split/split_dim", "shape": [], "dtype": "int32"}, {"name": "StatefulPartitionedCall/decoder/gru_1/PartitionedCall_30/while/body/_2346/while/TensorArrayV2Read/TensorListGetItem/element_shape", "shape": [2], "dtype": "int32"}, {"name": "StatefulPartitionedCall/decoder/gru_1/PartitionedCall_30/while/body/_2346/while/split_1/split_dim", "shape": [], "dtype": "int32"}, {"name": "StatefulPartitionedCall/decoder/gru_1/PartitionedCall_30/while/body/_2346/while/add_4/y", "shape": [], "dtype": "int32"}, {"name": "StatefulPartitionedCall/decoder/gru_1/PartitionedCall_30/while/body/_2346/while/add_5/y", "shape": [], "dtype": "int32"}, {"name": "StatefulPartitionedCall/decoder/gru_1/PartitionedCall_31/while/body/_2406/while/sub/x", "shape": [], "dtype": "float32"}, {"name": "StatefulPartitionedCall/decoder/gru_1/PartitionedCall_31/while/body/_2406/while/split/split_dim", "shape": [], "dtype": "int32"}, {"name": "StatefulPartitionedCall/decoder/gru_1/PartitionedCall_31/while/body/_2406/while/TensorArrayV2Read/TensorListGetItem/element_shape", "shape": [2], "dtype": "int32"}, {"name": "StatefulPartitionedCall/decoder/gru_1/PartitionedCall_31/while/body/_2406/while/split_1/split_dim", "shape": [], "dtype": "int32"}, {"name": "StatefulPartitionedCall/decoder/gru_1/PartitionedCall_31/while/body/_2406/while/add_4/y", "shape": [], "dtype": "int32"}, {"name": "StatefulPartitionedCall/decoder/gru_1/PartitionedCall_31/while/body/_2406/while/add_5/y", "shape": [], "dtype": "int32"}, {"name": "StatefulPartitionedCall/decoder/gru_1/PartitionedCall_32/while/body/_2466/while/sub/x", "shape": [], "dtype": "float32"}, {"name": "StatefulPartitionedCall/decoder/gru_1/PartitionedCall_32/while/body/_2466/while/split/split_dim", "shape": [], "dtype": "int32"}, {"name": "StatefulPartitionedCall/decoder/gru_1/PartitionedCall_32/while/body/_2466/while/TensorArrayV2Read/TensorListGetItem/element_shape", "shape": [2], "dtype": "int32"}, {"name": "StatefulPartitionedCall/decoder/gru_1/PartitionedCall_32/while/body/_2466/while/split_1/split_dim", "shape": [], "dtype": "int32"}, {"name": "StatefulPartitionedCall/decoder/gru_1/PartitionedCall_32/while/body/_2466/while/add_4/y", "shape": [], "dtype": "int32"}, {"name": "StatefulPartitionedCall/decoder/gru_1/PartitionedCall_32/while/body/_2466/while/add_5/y", "shape": [], "dtype": "int32"}, {"name": "StatefulPartitionedCall/decoder/gru_1/PartitionedCall_33/while/body/_2526/while/sub/x", "shape": [], "dtype": "float32"}, {"name": "StatefulPartitionedCall/decoder/gru_1/PartitionedCall_33/while/body/_2526/while/split/split_dim", "shape": [], "dtype": "int32"}, {"name": "StatefulPartitionedCall/decoder/gru_1/PartitionedCall_33/while/body/_2526/while/TensorArrayV2Read/TensorListGetItem/element_shape", "shape": [2], "dtype": "int32"}, {"name": "StatefulPartitionedCall/decoder/gru_1/PartitionedCall_33/while/body/_2526/while/split_1/split_dim", "shape": [], "dtype": "int32"}, {"name": "StatefulPartitionedCall/decoder/gru_1/PartitionedCall_33/while/body/_2526/while/add_4/y", "shape": [], "dtype": "int32"}, {"name": "StatefulPartitionedCall/decoder/gru_1/PartitionedCall_33/while/body/_2526/while/add_5/y", "shape": [], "dtype": "int32"}, {"name": "StatefulPartitionedCall/decoder/gru_1/PartitionedCall_34/while/body/_2586/while/sub/x", "shape": [], "dtype": "float32"}, {"name": "StatefulPartitionedCall/decoder/gru_1/PartitionedCall_34/while/body/_2586/while/split/split_dim", "shape": [], "dtype": "int32"}, {"name": "StatefulPartitionedCall/decoder/gru_1/PartitionedCall_34/while/body/_2586/while/TensorArrayV2Read/TensorListGetItem/element_shape", "shape": [2], "dtype": "int32"}, {"name": "StatefulPartitionedCall/decoder/gru_1/PartitionedCall_34/while/body/_2586/while/split_1/split_dim", "shape": [], "dtype": "int32"}, {"name": "StatefulPartitionedCall/decoder/gru_1/PartitionedCall_34/while/body/_2586/while/add_4/y", "shape": [], "dtype": "int32"}, {"name": "StatefulPartitionedCall/decoder/gru_1/PartitionedCall_34/while/body/_2586/while/add_5/y", "shape": [], "dtype": "int32"}, {"name": "StatefulPartitionedCall/decoder/gru_1/PartitionedCall_35/while/body/_2646/while/sub/x", "shape": [], "dtype": "float32"}, {"name": "StatefulPartitionedCall/decoder/gru_1/PartitionedCall_35/while/body/_2646/while/split/split_dim", "shape": [], "dtype": "int32"}, {"name": "StatefulPartitionedCall/decoder/gru_1/PartitionedCall_35/while/body/_2646/while/TensorArrayV2Read/TensorListGetItem/element_shape", "shape": [2], "dtype": "int32"}, {"name": "StatefulPartitionedCall/decoder/gru_1/PartitionedCall_35/while/body/_2646/while/split_1/split_dim", "shape": [], "dtype": "int32"}, {"name": "StatefulPartitionedCall/decoder/gru_1/PartitionedCall_35/while/body/_2646/while/add_4/y", "shape": [], "dtype": "int32"}, {"name": "StatefulPartitionedCall/decoder/gru_1/PartitionedCall_35/while/body/_2646/while/add_5/y", "shape": [], "dtype": "int32"}, {"name": "StatefulPartitionedCall/decoder/gru_1/PartitionedCall_36/while/body/_2706/while/sub/x", "shape": [], "dtype": "float32"}, {"name": "StatefulPartitionedCall/decoder/gru_1/PartitionedCall_36/while/body/_2706/while/split/split_dim", "shape": [], "dtype": "int32"}, {"name": "StatefulPartitionedCall/decoder/gru_1/PartitionedCall_36/while/body/_2706/while/TensorArrayV2Read/TensorListGetItem/element_shape", "shape": [2], "dtype": "int32"}, {"name": "StatefulPartitionedCall/decoder/gru_1/PartitionedCall_36/while/body/_2706/while/split_1/split_dim", "shape": [], "dtype": "int32"}, {"name": "StatefulPartitionedCall/decoder/gru_1/PartitionedCall_36/while/body/_2706/while/add_4/y", "shape": [], "dtype": "int32"}, {"name": "StatefulPartitionedCall/decoder/gru_1/PartitionedCall_36/while/body/_2706/while/add_5/y", "shape": [], "dtype": "int32"}, {"name": "StatefulPartitionedCall/decoder/gru_1/PartitionedCall_37/while/body/_2766/while/sub/x", "shape": [], "dtype": "float32"}, {"name": "StatefulPartitionedCall/decoder/gru_1/PartitionedCall_37/while/body/_2766/while/split/split_dim", "shape": [], "dtype": "int32"}, {"name": "StatefulPartitionedCall/decoder/gru_1/PartitionedCall_37/while/body/_2766/while/TensorArrayV2Read/TensorListGetItem/element_shape", "shape": [2], "dtype": "int32"}, {"name": "StatefulPartitionedCall/decoder/gru_1/PartitionedCall_37/while/body/_2766/while/split_1/split_dim", "shape": [], "dtype": "int32"}, {"name": "StatefulPartitionedCall/decoder/gru_1/PartitionedCall_37/while/body/_2766/while/add_4/y", "shape": [], "dtype": "int32"}, {"name": "StatefulPartitionedCall/decoder/gru_1/PartitionedCall_37/while/body/_2766/while/add_5/y", "shape": [], "dtype": "int32"}, {"name": "StatefulPartitionedCall/decoder/gru_1/PartitionedCall_38/while/body/_2826/while/sub/x", "shape": [], "dtype": "float32"}, {"name": "StatefulPartitionedCall/decoder/gru_1/PartitionedCall_38/while/body/_2826/while/split/split_dim", "shape": [], "dtype": "int32"}, {"name": "StatefulPartitionedCall/decoder/gru_1/PartitionedCall_38/while/body/_2826/while/TensorArrayV2Read/TensorListGetItem/element_shape", "shape": [2], "dtype": "int32"}, {"name": "StatefulPartitionedCall/decoder/gru_1/PartitionedCall_38/while/body/_2826/while/split_1/split_dim", "shape": [], "dtype": "int32"}, {"name": "StatefulPartitionedCall/decoder/gru_1/PartitionedCall_38/while/body/_2826/while/add_4/y", "shape": [], "dtype": "int32"}, {"name": "StatefulPartitionedCall/decoder/gru_1/PartitionedCall_38/while/body/_2826/while/add_5/y", "shape": [], "dtype": "int32"}, {"name": "StatefulPartitionedCall/decoder/gru_1/PartitionedCall_39/while/body/_2886/while/sub/x", "shape": [], "dtype": "float32"}, {"name": "StatefulPartitionedCall/decoder/gru_1/PartitionedCall_39/while/body/_2886/while/split/split_dim", "shape": [], "dtype": "int32"}, {"name": "StatefulPartitionedCall/decoder/gru_1/PartitionedCall_39/while/body/_2886/while/TensorArrayV2Read/TensorListGetItem/element_shape", "shape": [2], "dtype": "int32"}, {"name": "StatefulPartitionedCall/decoder/gru_1/PartitionedCall_39/while/body/_2886/while/split_1/split_dim", "shape": [], "dtype": "int32"}, {"name": "StatefulPartitionedCall/decoder/gru_1/PartitionedCall_39/while/body/_2886/while/add_4/y", "shape": [], "dtype": "int32"}, {"name": "StatefulPartitionedCall/decoder/gru_1/PartitionedCall_39/while/body/_2886/while/add_5/y", "shape": [], "dtype": "int32"}, {"name": "StatefulPartitionedCall/decoder/gru_1/PartitionedCall_40/while/body/_2946/while/sub/x", "shape": [], "dtype": "float32"}, {"name": "StatefulPartitionedCall/decoder/gru_1/PartitionedCall_40/while/body/_2946/while/split/split_dim", "shape": [], "dtype": "int32"}, {"name": "StatefulPartitionedCall/decoder/gru_1/PartitionedCall_40/while/body/_2946/while/TensorArrayV2Read/TensorListGetItem/element_shape", "shape": [2], "dtype": "int32"}, {"name": "StatefulPartitionedCall/decoder/gru_1/PartitionedCall_40/while/body/_2946/while/split_1/split_dim", "shape": [], "dtype": "int32"}, {"name": "StatefulPartitionedCall/decoder/gru_1/PartitionedCall_40/while/body/_2946/while/add_4/y", "shape": [], "dtype": "int32"}, {"name": "StatefulPartitionedCall/decoder/gru_1/PartitionedCall_40/while/body/_2946/while/add_5/y", "shape": [], "dtype": "int32"}, {"name": "StatefulPartitionedCall/decoder/gru_1/PartitionedCall_41/while/body/_3006/while/sub/x", "shape": [], "dtype": "float32"}, {"name": "StatefulPartitionedCall/decoder/gru_1/PartitionedCall_41/while/body/_3006/while/split/split_dim", "shape": [], "dtype": "int32"}, {"name": "StatefulPartitionedCall/decoder/gru_1/PartitionedCall_41/while/body/_3006/while/TensorArrayV2Read/TensorListGetItem/element_shape", "shape": [2], "dtype": "int32"}, {"name": "StatefulPartitionedCall/decoder/gru_1/PartitionedCall_41/while/body/_3006/while/split_1/split_dim", "shape": [], "dtype": "int32"}, {"name": "StatefulPartitionedCall/decoder/gru_1/PartitionedCall_41/while/body/_3006/while/add_4/y", "shape": [], "dtype": "int32"}, {"name": "StatefulPartitionedCall/decoder/gru_1/PartitionedCall_41/while/body/_3006/while/add_5/y", "shape": [], "dtype": "int32"}, {"name": "StatefulPartitionedCall/decoder/gru_1/PartitionedCall_42/while/body/_3066/while/sub/x", "shape": [], "dtype": "float32"}, {"name": "StatefulPartitionedCall/decoder/gru_1/PartitionedCall_42/while/body/_3066/while/split/split_dim", "shape": [], "dtype": "int32"}, {"name": "StatefulPartitionedCall/decoder/gru_1/PartitionedCall_42/while/body/_3066/while/TensorArrayV2Read/TensorListGetItem/element_shape", "shape": [2], "dtype": "int32"}, {"name": "StatefulPartitionedCall/decoder/gru_1/PartitionedCall_42/while/body/_3066/while/split_1/split_dim", "shape": [], "dtype": "int32"}, {"name": "StatefulPartitionedCall/decoder/gru_1/PartitionedCall_42/while/body/_3066/while/add_4/y", "shape": [], "dtype": "int32"}, {"name": "StatefulPartitionedCall/decoder/gru_1/PartitionedCall_42/while/body/_3066/while/add_5/y", "shape": [], "dtype": "int32"}, {"name": "StatefulPartitionedCall/decoder/gru_1/PartitionedCall_43/while/body/_3126/while/sub/x", "shape": [], "dtype": "float32"}, {"name": "StatefulPartitionedCall/decoder/gru_1/PartitionedCall_43/while/body/_3126/while/split/split_dim", "shape": [], "dtype": "int32"}, {"name": "StatefulPartitionedCall/decoder/gru_1/PartitionedCall_43/while/body/_3126/while/TensorArrayV2Read/TensorListGetItem/element_shape", "shape": [2], "dtype": "int32"}, {"name": "StatefulPartitionedCall/decoder/gru_1/PartitionedCall_43/while/body/_3126/while/split_1/split_dim", "shape": [], "dtype": "int32"}, {"name": "StatefulPartitionedCall/decoder/gru_1/PartitionedCall_43/while/body/_3126/while/add_4/y", "shape": [], "dtype": "int32"}, {"name": "StatefulPartitionedCall/decoder/gru_1/PartitionedCall_43/while/body/_3126/while/add_5/y", "shape": [], "dtype": "int32"}, {"name": "StatefulPartitionedCall/decoder/gru_1/PartitionedCall_44/while/body/_3186/while/sub/x", "shape": [], "dtype": "float32"}, {"name": "StatefulPartitionedCall/decoder/gru_1/PartitionedCall_44/while/body/_3186/while/split/split_dim", "shape": [], "dtype": "int32"}, {"name": "StatefulPartitionedCall/decoder/gru_1/PartitionedCall_44/while/body/_3186/while/TensorArrayV2Read/TensorListGetItem/element_shape", "shape": [2], "dtype": "int32"}, {"name": "StatefulPartitionedCall/decoder/gru_1/PartitionedCall_44/while/body/_3186/while/split_1/split_dim", "shape": [], "dtype": "int32"}, {"name": "StatefulPartitionedCall/decoder/gru_1/PartitionedCall_44/while/body/_3186/while/add_4/y", "shape": [], "dtype": "int32"}, {"name": "StatefulPartitionedCall/decoder/gru_1/PartitionedCall_44/while/body/_3186/while/add_5/y", "shape": [], "dtype": "int32"}, {"name": "StatefulPartitionedCall/decoder/gru_1/PartitionedCall_45/while/body/_3246/while/sub/x", "shape": [], "dtype": "float32"}, {"name": "StatefulPartitionedCall/decoder/gru_1/PartitionedCall_45/while/body/_3246/while/split/split_dim", "shape": [], "dtype": "int32"}, {"name": "StatefulPartitionedCall/decoder/gru_1/PartitionedCall_45/while/body/_3246/while/TensorArrayV2Read/TensorListGetItem/element_shape", "shape": [2], "dtype": "int32"}, {"name": "StatefulPartitionedCall/decoder/gru_1/PartitionedCall_45/while/body/_3246/while/split_1/split_dim", "shape": [], "dtype": "int32"}, {"name": "StatefulPartitionedCall/decoder/gru_1/PartitionedCall_45/while/body/_3246/while/add_4/y", "shape": [], "dtype": "int32"}, {"name": "StatefulPartitionedCall/decoder/gru_1/PartitionedCall_45/while/body/_3246/while/add_5/y", "shape": [], "dtype": "int32"}, {"name": "StatefulPartitionedCall/decoder/gru_1/PartitionedCall_46/while/body/_3306/while/sub/x", "shape": [], "dtype": "float32"}, {"name": "StatefulPartitionedCall/decoder/gru_1/PartitionedCall_46/while/body/_3306/while/split/split_dim", "shape": [], "dtype": "int32"}, {"name": "StatefulPartitionedCall/decoder/gru_1/PartitionedCall_46/while/body/_3306/while/TensorArrayV2Read/TensorListGetItem/element_shape", "shape": [2], "dtype": "int32"}, {"name": "StatefulPartitionedCall/decoder/gru_1/PartitionedCall_46/while/body/_3306/while/split_1/split_dim", "shape": [], "dtype": "int32"}, {"name": "StatefulPartitionedCall/decoder/gru_1/PartitionedCall_46/while/body/_3306/while/add_4/y", "shape": [], "dtype": "int32"}, {"name": "StatefulPartitionedCall/decoder/gru_1/PartitionedCall_46/while/body/_3306/while/add_5/y", "shape": [], "dtype": "int32"}, {"name": "StatefulPartitionedCall/decoder/gru_1/PartitionedCall_47/while/body/_3366/while/sub/x", "shape": [], "dtype": "float32"}, {"name": "StatefulPartitionedCall/decoder/gru_1/PartitionedCall_47/while/body/_3366/while/split/split_dim", "shape": [], "dtype": "int32"}, {"name": "StatefulPartitionedCall/decoder/gru_1/PartitionedCall_47/while/body/_3366/while/TensorArrayV2Read/TensorListGetItem/element_shape", "shape": [2], "dtype": "int32"}, {"name": "StatefulPartitionedCall/decoder/gru_1/PartitionedCall_47/while/body/_3366/while/split_1/split_dim", "shape": [], "dtype": "int32"}, {"name": "StatefulPartitionedCall/decoder/gru_1/PartitionedCall_47/while/body/_3366/while/add_4/y", "shape": [], "dtype": "int32"}, {"name": "StatefulPartitionedCall/decoder/gru_1/PartitionedCall_47/while/body/_3366/while/add_5/y", "shape": [], "dtype": "int32"}, {"name": "StatefulPartitionedCall/decoder/gru_1/PartitionedCall_48/while/body/_3426/while/sub/x", "shape": [], "dtype": "float32"}, {"name": "StatefulPartitionedCall/decoder/gru_1/PartitionedCall_48/while/body/_3426/while/split/split_dim", "shape": [], "dtype": "int32"}, {"name": "StatefulPartitionedCall/decoder/gru_1/PartitionedCall_48/while/body/_3426/while/TensorArrayV2Read/TensorListGetItem/element_shape", "shape": [2], "dtype": "int32"}, {"name": "StatefulPartitionedCall/decoder/gru_1/PartitionedCall_48/while/body/_3426/while/split_1/split_dim", "shape": [], "dtype": "int32"}, {"name": "StatefulPartitionedCall/decoder/gru_1/PartitionedCall_48/while/body/_3426/while/add_4/y", "shape": [], "dtype": "int32"}, {"name": "StatefulPartitionedCall/decoder/gru_1/PartitionedCall_48/while/body/_3426/while/add_5/y", "shape": [], "dtype": "int32"}, {"name": "StatefulPartitionedCall/decoder/gru_1/PartitionedCall_49/while/body/_3486/while/sub/x", "shape": [], "dtype": "float32"}, {"name": "StatefulPartitionedCall/decoder/gru_1/PartitionedCall_49/while/body/_3486/while/split/split_dim", "shape": [], "dtype": "int32"}, {"name": "StatefulPartitionedCall/decoder/gru_1/PartitionedCall_49/while/body/_3486/while/TensorArrayV2Read/TensorListGetItem/element_shape", "shape": [2], "dtype": "int32"}, {"name": "StatefulPartitionedCall/decoder/gru_1/PartitionedCall_49/while/body/_3486/while/split_1/split_dim", "shape": [], "dtype": "int32"}, {"name": "StatefulPartitionedCall/decoder/gru_1/PartitionedCall_49/while/body/_3486/while/add_4/y", "shape": [], "dtype": "int32"}, {"name": "StatefulPartitionedCall/decoder/gru_1/PartitionedCall_49/while/body/_3486/while/add_5/y", "shape": [], "dtype": "int32"}]}]}